exam/DAGMM_best_complete.pth (torch, 46339 bytes, 22 tensors)

phi f4 [4]
00000000: 4cf9 ba3e c0ee 263e 9c93 283e 8745 9d3e
0.36518323 0.16302013 0.16462559 0.30717108

mu f4 [4, 3]
00000000: e88f ad3c d0ad 0c3f c858 563f 6c97 ad3c
00000010: 3ac6 0c3f ef44 563f 8999 ad3c 4191 0c3f
00000020: b06e 563f ca86 ad3c 4407 0d3f 8612 563f
0.021186784 0.54952717 0.8372922 0.021190368 0.5498997 0.83698934 0.021191375 0.5490914
0.83762646 0.021182436 0.5508921 0.83622015

cov f4 [4, 3, 3]
00000000: b91a 8937 0c1d 6db7 6d9b 7536 0c1d 6db7
00000010: aa00 803b d40c 48bb 6d9b 7536 d40c 48bb
00000020: ab8c 243b c9fe 8837 ab75 66b7 30de 6136
00000030: ab75 66b7 a587 833b 0f17 4ebb 30de 6136
00000040: 0f17 4ebb 59d7 293b 1d58 8a37 15f0 7eb7
00000050: 58bf 9036 15f0 7eb7 df64 793b 3f65 42bb
00000060: 58bf 9036 3f65 42bb 5d9c 1f3b 8496 8637
00000070: 2c1f 41b7 683d 0436 2c1f 41b7 967b 8b3b
00000080: 8dac 5bbb 683d 0436 8dac 5bbb 82b1 353b
1.6344116e-05 -1.4133064e-05 3.6598315e-06 -1.4133064e-05 0.003906329 -0.0030525224 3.6598315e-06 -0.0030525224
0.0025108259 1.6331107e-05 -1.3736465e-05 3.3656943e-06 -1.3736465e-05 0.004013973 -0.003144685 3.3656943e-06
-0.003144685 0.002591571 1.6491913e-05 -1.5195478e-05 4.3138098e-06 -1.5195478e-05 0.0038054509 -0.0029662398
4.3138098e-06 -0.0029662398 0.0024354674 1.6044134e-05 -1.1510954e-05 1.9705276e-06 -1.1510954e-05 0.004256676
-0.0033519596 1.9705276e-06 -0.0033519596 0.002772421

encoder.0.weight f4 [60, 41]
00000000: 15c0 78be 90f7 6a3d 3513 7d3d 1ada b2bd
00000010: b25f 643d 5390 cfbd c55f 7f3c 887c 14be
00000020: 3ad6 aebd bf6c a8bd dffb fc3c 0b78 283d
00000030: c2b3 17bc a902 a83d c0b0 de3d f2ee 5fbd
00000040: 4ef0 0b3d ab9f a43d f308 3d3e 8788 97bd
00000050: 5649 563d 5a3b ab3d 3734 bebd eca8 c5bd
00000060: c753 cf3d 4113 30bd 7168 c93e 2e95 363e
00000070: a835 f4bd c482 973d b2cf 373d 1ab0 393d
00000080: 56fe 10be 1212 063c f9d6 933d 4816 a5bd
00000090: 8c68 1fbd 6dea c83d 2066 38bd df49 d3bc
000000a0: 9fba ecbc 183b 9a3e a0ac 34be 09a6 673d
000000b0: 43c9 0c3e 50e5 e2bd ba40 bc3c d2f8 04bd
000000c0: bf3c 313e 5e09 94bd a841 50bb 18f4 41bd
000000d0: 8a42 893b 9cbd 4fbe fcdb c73d a1d8 373e
000000e0: 7d5d 07bc e0c5 333e 21fb 8ebd b9ef c53e
000000f0: 18a3 0a3e c016 113e 1156 e0bd c6bc 693d
00000100: bd6f 7d3e 0f19 063e 4621 1c3d d33c 57be
00000110: 60c7 c73b 6ddd 4bbd d4e0 e73d 6e35 1c3f
00000120: 1d94 e7bd b045 11bc afea d33c fa94 d03e
00000130: 2331 a13d 6adf 903d 310e 4b3d a861 c03d
00000140: 7ff6 80bd d5d4 523d d7ff c63e bdd5 2cbe
00000150: ef4e a63d 5176 8abd f3f0 013e 2179 7bbd
00000160: a257 593e d3c2 d93b 6ed4 6f3e 817b ac3e
00000170: f556 033e d757 10bf 85ce c8bd f76c 893e
00000180: f4a1 a73d 6921 29be ff65 203d 498b 0f3e
00000190: a1f0 513e e1a4 18be 07b1 61bd 6fc7 6e3e
000001a0: 0ee6 b73c 30fd 013e 4686 24bd 7166 ee3b
000001b0: 67ce 483b dfde 3bbe 6668 083d caf8 babd
000001c0: 79a2 8bbe 0289 64be 8756 e63d ef87 77bd
000001d0: c870 57bd 009c 7d3e 0426 803c 71b5 433e
000001e0: 4fd6 253d eadd 35be 9563 333d 2577 b03e
000001f0: 69eb ab3e ccff ef3c dae8 8b3e 9f55 11be
00000200: 8c6b 6abc 6934 20bd b265 5c3c 8f8b b13d
00000210: bab0 9f3d 8292 43be f4f7 2abe 0360 753d
00000220: 9c5f 9fbe 2926 9dbe 0646 eabd 7edc e4bc
00000230: e336 50be a8ec 283e 8acf b5bd 2b48 8abe
00000240: ad47 003d 2b26 08be f124 debd 7255 86bb
00000250: 75a9 943d a3e4 26be 938e 65bd 550c f63d
00000260: b9c4 373f b7ec a5bd 3223 fb3d 1555 05be
00000270: afcc d1bd 8e10 58be a342 563e 45ac 81bd
00000280: 53ee b9bd e889 2cbe 0e5c 2ebd 2e44 073d
00000290: 78b7 f1bd 5139 b93e 47b3 acbe 66ac 18be
000002a0: eee7 843d b191 f33e f8a1 19be c0a6 5cbe
000002b0: df7e 943c a8fe 9fbe 1d00 83be 906e ff3d
000002c0: 2f60 443e 6942 a63d 878d 963d 1102 803d
000002d0: 8550 753d b7f4 bebe 82fa 7ebd 8508 2fbc
000002e0: f695 6cbe e734 c0bd a478 9abe 70d7 00be
000002f0: a3b4 98be 030a 36bd e92d cfbd 3e97 84bd
00000300: e7a0 413e 1984 e1bd 4812 75bf f083 313f
00000310: 5b1b 033e da08 1d3e 1d72 26bf 6847 8abe
00000320: 7b3b 3ebd 31e0 083e 4e6b 87bd b945 a83d
00000330: fdd8 b6be 5720 1bbb f0d3 b3bd ab72 eebd
00000340: 69c3 7b3b 62ea 863d 8d1a 0f3d f353 74be
00000350: 6928 45be 0cb3 63be d9fb c4be 9f64 943c
00000360: 7b5d 6a3e a381 ddbd 0a38 c83d 328d 543b
00000370: 34eb 49be f8c7 d93c 40e9 4fbe af46 9bbc
00000380: 2499 1c3e c095 5fbe 38b9 3bbe f01b 13bd
00000390: e6b2 96bd 68be 413d 5438 9e3e 3110 823c
000003a0: 727b 8d3c 0c89 023e 7db0 ebbd 6180 45be
000003b0: f00d 9fbc 47cc 06bc f48e b23c 6311 31bd
000003c0: 4d98 15be 8ed3 cabd f657 40bb 3685 d3bd
000003d0: 2b50 0dbe 542b 0dbd 9ab1 603e dee1 e0bd
000003e0: a9f8 dd3c 88a5 4bbe 58dd 4c3c d6d4 a8bd
000003f0: 5b82 32be fbae 0fbe 0860 a9bd 4bd7 48bd
-0.24292023 0.057365 0.061785895 -0.08733006 0.055755325 -0.101349495 0.015586798 -0.1450063
-0.08536954 -0.08223867 0.03088182 0.041130107 -0.009259166 0.082036324 0.10873556 -0.054671235
0.03416472 0.08038267 0.18460445 -0.073990874 0.052316032 0.0836093 -0.09287303 -0.0965136
0.10123401 -0.042987112 0.39337495 0.17830345 -0.119242966 0.073979884 0.044875808 0.04533396
-0.14159521 0.008183019 0.07218737 -0.080608904 -0.038918063 0.09810338 -0.04501927 -0.02579206
-0.028897582 0.3012321 -0.17643976 0.056554828 0.1374865 -0.11078894 0.022980083 -0.032463856
0.17308329 -0.07228349 -0.0031777415 -0.047351927 0.0041888403 -0.20287174 0.097587556 0.17953731
-0.008262035 0.17555952 -0.06981493 0.38659456 0.13538778 0.14168835 -0.10953916 0.057064794
0.24749656 0.13095497 0.03811767 -0.21019296 0.0060967654 -0.049771715 0.113221794 0.6101903
-0.11307547 -0.008866712 0.025868742 0.4073866 0.078707 0.07073863 0.04957408 0.093936265
-0.062970154 0.051472504 0.38867065 -0.1687841 0.08120524 -0.06760848 0.12689571 -0.061394814
0.21224836 0.0066455393 0.23420879 0.33687976 0.1282614 -0.5638403 -0.098050155 0.26840946
0.08185187 -0.16516651 0.03915977 0.14017977 0.20501949 -0.14906646 -0.055100467 0.23318265
0.022448566 0.1269424 -0.040167116 0.0072753956 0.0030640604 -0.18346737 0.033302687 -0.09129484
-0.27272394 -0.2231789 0.112469725 -0.06043237 -0.05259779 0.2476654 0.015643127 0.19112183
0.040487584 -0.17760435 0.04379614 0.344659 0.3357804 0.029296778 0.2732609 -0.14192818
-0.014307868 -0.039112482 0.01345198 0.08669197 0.0779738 -0.19098857 -0.16696149 0.059906017
-0.31127632 -0.30693176 -0.11439137 -0.02793717 -0.20333438 0.16496527 -0.088774756 -0.27008185
0.031318355 -0.1329581 -0.1084689 -0.0040995413 0.07258884 -0.16298155 -0.056044172 0.12014071
0.7178455 -0.081017904 0.12262572 -0.13020737 -0.102441184 -0.21100065 0.20923857 -0.06331686
-0.0907866 -0.16849482 -0.04256826 0.033024006 -0.11802572 0.3617654 -0.33730528 -0.14909515
0.064895496 0.4757209 -0.15003192 -0.21547985 0.018126903 -0.31248975 -0.25586024 0.1247226
0.19177316 0.081181355 0.07351213 0.06250394 0.059891243 -0.37296078 -0.06225062 -0.010683184
-0.2310408 -0.0938509 -0.30170166 -0.12582183 -0.29825315 -0.04444314 -0.101161785 -0.0647416
0.18909036 -0.11011524 -0.9573102 0.69341946 0.12803404 0.15335408 -0.65017873 -0.27007604
-0.046443444 0.13366772 -0.066122636 0.082164235 -0.35712424 -0.00236704 -0.08780658 -0.11642965
0.0038416034 0.06587674 0.03493743 -0.23860149 -0.19253697 -0.2223627 -0.38473395 0.018114386
0.22887222 -0.10815742 0.097763136 0.0032432792 -0.19718629 0.02658461 -0.20303822 -0.018954603
0.15292794 -0.21834469 -0.18332374 -0.035915315 -0.07358341 0.047300726 0.3090235 0.015876861
0.017270777 0.12747592 -0.11508272 -0.19287254 -0.019415826 -0.008227414 0.021796681 -0.043229472
-0.1460888 -0.09903632 -0.0029349304 -0.10328142 -0.13800113 -0.03446515 0.2194275 -0.10980581
0.02709611 -0.19887364 0.012503944 -0.0824372 -0.17432539 -0.14031594 -0.0827027 -0.049033444

encoder.0.bias f4 [60]
00000000: 827f a23b 9880 3dbe 5584 3abe 1505 8e3d
00000010: 6902 ba3e 2435 8c3d 6330 1dbd 5aee 523d
00000020: b8da 68be f98e 77be 037a c5bd 18df 963e
00000030: 7db0 6abd a2d5 09bf 4126 45bd df08 af3d
00000040: 0487 c0bd 066b d6bc 9d1f 2b3e 59f1 3b3e
00000050: 3424 17be 116c fd3d f398 be3d 0ba7 1fbd
00000060: c2bf 0a3d 7517 0e3d 89b9 9c3c f1b8 703d
00000070: e80d d2be d331 393d d08e 643d 51df c0bc
00000080: b9b5 7c3d d728 133d 934c f3bc b73a b9bb
00000090: 6d29 283e 7a76 6dbd 055e 133e 012a a7bd
000000a0: fa91 58bc fb53 2bbe d823 343e 7ee0 d0bd
000000b0: 9f67 94bc 9887 88be e623 04bc 2a0e afbd
000000c0: cc19 853e c03b a1bd efae 573e e44d 38bd
000000d0: 02e6 a33d df12 053d ac22 55bd 8abd 48be
000000e0: b0ea fa3d 1562 95be b203 ff3d da46 1fbe
0.004959048 -0.18506086 -0.18214543 0.06934563 0.36329964 0.06846073 -0.038376223 0.05149684
-0.22739685 -0.24175633 -0.096424125 0.29467082 -0.05729722 -0.538416 -0.048132185 0.08546614
-0.09400752 -0.02617408 0.16711278 0.18353786 -0.14759904 0.12374128 0.093065165 -0.038977664
0.03387428 0.03469034 0.019131439 0.058770124 -0.41026235 0.04521353 0.05580026 -0.023543986
0.06169674 0.03592762 -0.0296996 -0.0056527513 0.16422053 -0.057974316 0.14391334 -0.081623085
-0.013218397 -0.16731255 0.17591798 -0.101990685 -0.018115817 -0.2666595 -0.0080651995 -0.085476235
0.25996244 -0.078727245 0.21062826 -0.044996157 0.08002855 0.0324887 -0.05203502 -0.19603553
0.12251794 -0.29176393 0.12451877 -0.15554371

encoder.2.weight f4 [30, 60]
00000000: 092d dfbc 32e2 1b3e 84a5 0c3d 22b7 0f3e
00000010: e962 37bd 5232 f93b ed66 203d fe1e a8bc
00000020: 796a 79bd a223 893d a965 fabc ed4b a8bd
00000030: b5c2 bc3d 8cd0 8bbd 1255 e93a d94c 913d
00000040: 8565 1ebd 4b87 59bd de30 54bc 7077 aa3b
00000050: 5aa8 25bd ca6f 78bd b4ca 2e3e ff89 26bc
00000060: 32e7 8abc 4c4f 4b3c 7a30 8d3c bb93 093e
00000070: 0572 b1bc e825 e83c e6d0 24bd fbdf 5cbd
00000080: 3db3 123c 90ec fd3d eaf0 db3d e444 04be
00000090: b771 ecbc 358c 0f3e 8ffb ec3c 0e02 04be
000000a0: 7099 833d 1396 0a3e d304 9d3c aa05 0cbe
000000b0: 764f f03c ed92 2c3d 4bb9 62bc bfff 25ba
000000c0: 8e64 d6bc d191 ce3c 9a4a 86bd bceb cb3c
000000d0: 59db f93d 8abb 3c3d b4e6 05bb 8125 3ebd
000000e0: 17d1 04be d458 82bd b2a9 de3d 0264 ad3d
000000f0: e1f8 83bd 2d33 60bd 860a a7bc bef7 b7bc
00000100: dddc f3bc 4027 86bb 42c9 36bd afdf 9b3d
00000110: e409 97bc c242 04bd a09c 07bc 1570 54bd
00000120: 9759 793d 1a06 cdbd fd05 093b c135 f4bc
00000130: 6545 513c 3375 6dbd 7095 7ebd bb58 8a3d
00000140: 2db7 a8bd 50a9 bc3b fa0e c6bd 56b1 113c
00000150: 4e09 e4bc 65c6 5f3c 3a3f acbd 7734 023d
00000160: 33e8 65bd 287f 8fbd b487 14bd 89ac 2fbd
00000170: bbfc 963d e33e 273d e25b cebc 31d5 1fbd
00000180: 2593 99bc 449b 373d 7a1a 933d 3c36 643d
00000190: fb67 95bd 4661 203d 4b8b 933d abe1 a13d
000001a0: 67b8 783d 5f2b 903c 6fec ba3d 6362 343c
000001b0: f823 05bd b295 633d c371 463d 9f5b ccbb
000001c0: c87b 193d 8a21 663d d75d b93d 9834 2c3c
000001d0: 33c6 813d a030 743c d012 093d bca2 08bc
000001e0: 60b3 9b3d 2eb8 b5bf b9ec e0bc 3d7e 8f3e
000001f0: 6d2f 4740 73f3 823e 3ebe bebe 2e4e 063e
00000200: 5b29 f1bf 4f59 c1bf d3d4 bdbe 5765 293f
00000210: c313 eb3e e616 f8bd 93ab 623d 89fd b83e
00000220: 9e25 bfbe f6eb 7e3e 0c52 f139 9e39 bdbe
00000230: 53a3 53bf e596 c1be 533f c3be a7e5 83bf
00000240: c082 a43e 20c5 2cbf 8299 e4bd 1de2 9e3e
00000250: e6c1 24bf 459c a5be 8b95 1e3e 71c9 1d3f
00000260: 767f 9dbe 4ce7 bc3e 4bc6 213f b3ac f1be
00000270: b239 9cbe 0765 02be 7e6f bb3e 4af8 febd
00000280: 401c 4bbe ae57 07bf 5eaa 20be ffe1 3d3d
00000290: d2a1 a1bf 950f 00bf 1d6b 3fc0 f476 bdbe
000002a0: 66eb 4b3f 45f6 ffbe cf2f 89be bc54 8fbf
000002b0: d763 0f3f f5bf 7cbf fc33 b03e db2e 05bf
000002c0: f9d3 35bf a9b5 94bf 2750 283d 16ce 053e
000002d0: ad60 3abe 2d15 323c 8db5 a4bd 32db 4fbe
000002e0: b589 923b 8416 a1bd e618 a6be 7377 07be
000002f0: 5822 463c 5f2e 873e d2a2 573d 18b1 bfbc
00000300: e50e 5dbe 484e 71bc 4bef d53d aa5b f7bd
00000310: 7b4c 57be b47f c63d dace a73d e54f e0bd
00000320: 91dc 903d 902e 3cbd 0ee4 1d3d 3e62 303e
00000330: 9e85 f43d 0aef 75be a84a e9bd 4577 a63d
00000340: 2c7a bcbe 9977 e53d 1bf0 92be 1589 083d
00000350: 7566 e5bd 0c9d a73e db0f 293d 5369 853d
00000360: 64be 4ebd 44e3 dd3d a093 b6bd 20da 363e
00000370: c050 99bd 17a7 b73d cefc 16be cc76 7b3d
00000380: 059d 25be 2f00 81be 6f0c 0c3e 4c14 85be
00000390: fc86 fabd 4808 753d e716 4fbe 54a3 243e
000003a0: 58ae d53d 09a5 023e 63de f93d 7f1c ff3c
000003b0: 12fc a4bd e26a ee3d f90b 32bd e420 463e
000003c0: e154 edbc c2ba 6c3d afe5 8dbd b176 1bba
000003d0: aedf 68bd ada1 97bc 98d7 2f3d a8ba 6f3d
000003e0: e0dd 3e3d ef26 6c3c dffb 1abc 9666 223d
000003f0: ef81 8fbd 91a2 98bd 89b3 62bd f03e 2ebe
-0.027243154 0.15223005 0.034337536 0.14034703 -0.044772062 0.0076048756 0.039160658 -0.02052259
-0.060892556 0.066962495 -0.030566053 -0.08217607 0.09216825 -0.068268865 0.0017801842 0.07094736
-0.038671035 -0.05310754 -0.012951104 0.0052022263 -0.040443756 -0.060653485 0.17069513 -0.010164737
-0.016955946 0.012409043 0.01723503 0.13435261 -0.021660814 0.028338388 -0.040238284 -0.053924542
0.008953867 0.12398636 0.1073931 -0.12916905 -0.028862817 0.14018328 0.028928546 -0.12891409
0.0642575 0.13533811 0.01916734 -0.13674036 0.029334765 0.042132307 -0.013838123 -0.00063323596
-0.026170995 0.025216015 -0.06557198 0.02489268 0.1220004 0.04607729 -0.00204317 -0.046422485
-0.12970386 -0.06364599 0.108722106 0.084663406 -0.06443954 -0.054736305 -0.02039076 -0.022457
-0.029768402 -0.0040940344 -0.04462553 0.07611024 -0.018437333 -0.032290228 -0.008277088 -0.051864702
0.060876455 -0.100109294 0.002090811 -0.029810788 0.012772893 -0.057973098 -0.062154233 0.06755205
-0.08238063 0.0057574883 -0.09670825 0.008892378 -0.027836468 0.013658141 -0.08410497 0.031788316
-0.056129646 -0.07006675 -0.03626223 -0.04288915 0.07372423 0.040831458 -0.025190298 -0.039021675
-0.018746922 0.044825807 0.071827844 0.055715784 -0.07295223 0.039155267 0.072043024 0.07904371
0.060722735 0.017598806 0.091271274 0.011009785 -0.032505006 0.055562682 0.048448335 -0.006236508
0.037471563 0.05618433 0.09051102 0.010510586 0.063366316 0.014904171 0.033465207 -0.00833958
0.076025724 -1.4196832 -0.027456628 0.28026 3.1122696 0.25576362 -0.37254518 0.1311576
-1.8840746 -1.510538 -0.37076434 0.6617026 0.45913514 -0.121137425 0.055339407 0.36130932
-0.37333387 0.248947 0.00046028232 -0.3695802 -0.8267109 -0.37810436 -0.3813425 -1.0304459
0.32131004 -0.6748829 -0.11162092 0.31031886 -0.64358366 -0.32345787 0.15486734 0.616355
-0.30761307 0.36895216 0.63193196 -0.47202072 -0.30512768 -0.12733851 0.366085 -0.12449701
-0.19834995 -0.52868164 -0.1568999 0.046358105 -1.2627509 -0.50023776 -2.9909127 -0.37004817
0.79656065 -0.49992576 -0.26794288 -1.1197734 0.5601172 -0.98730403 0.3441466 -0.5202462
-0.7102657 -1.1617938 0.041092064 0.13066897 -0.18200941 0.0108693065 -0.080424406 -0.2029846
0.0044719824 -0.07865623 -0.3244087 -0.1322916 0.012093149 0.26402566 0.052645512 -0.023399875
-0.21587713 -0.014728136 0.10446032 -0.120780304 -0.21025269 0.09692326 0.08193751 -0.10952739
0.0707332 -0.045942843 0.038547568 0.17224976 0.11939548 -0.24016967 -0.11391193 0.081282176
-0.3681196 0.11204452 -0.2869881 0.033333857 -0.11201183 0.32737005 0.041274887 0.065142296
-0.05047454 0.10834363 -0.08914876 0.17856646 -0.07486105 0.08967417 -0.14744875 0.06139259
-0.1617318 -0.25195453 0.13676618 -0.25992048 -0.122327775 0.05982235 -0.2022358 0.1607793
0.10433644 0.12758268 0.1220062 0.031141518 -0.08055891 0.1164148 -0.04346845 0.19348484
-0.028971137 0.057795294 -0.06928574 -0.0005930467 -0.056853943 -0.01850971 0.042930216 0.05852762
0.046598315 0.014413579 -0.009459465 0.039648615 -0.07007205 -0.07452882 -0.055347 -0.17016196

encoder.2.bias f4 [30]
00000000: 500d 03be 8131 d6bd 1690 cebd 220b 46be
00000010: 8361 d0bc 6789 c83d 0e16 713d ccd6 4d3c
00000020: 9dad ae3d 1be4 5ebd 247f 00be a867 73bd
00000030: 1e7a 2ebe 9a5e 7abd 5cd8 863d 2b09 bfbc
00000040: c78c 07be 3c0d 8dbd dde5 3f3b e542 21bc
00000050: b092 053e 732b b8bd 386e e83b 51fb a4bd
00000060: a8e2 d5bd 1b57 933d 7eba 7d3d 3a8a 0b3e
00000070: 4911 adbc 2b1d 98bd
-0.12798047 -0.10458661 -0.10086076 -0.19340184 -0.025437122 0.097918324 0.058858924 0.012563419
0.08529208 -0.054416757 -0.125485 -0.059425026 -0.17038772 -0.061125375 0.06584236 -0.023319801
-0.13237296 -0.0688729 0.0029281296 -0.009842609 0.13044238 -0.08992662 0.007093217 -0.08055747
-0.10443622 0.071943484 0.06194543 0.13626948 -0.021126406 -0.07427438

encoder.4.weight f4 [10, 30]
00000000: d925 b13b cc5e bbbc 5fbf 8f3e 1147 a53d
00000010: b880 2a3d afaf df3c 93b6 bebd 27e4 c0bb
00000020: 62a3 47be a35f 053d 26db 993d ab0d 34bd
00000030: 690c c23c fe61 4abd aa98 a3bc b3a7 0a3d
00000040: 4ca2 c33c 5324 cf3d aafc 063e b639 e8bd
00000050: 5350 1ebd 3f81 013e 0280 113e 5827 413d
00000060: a58b 1a3e edc2 ea3c 54a4 bab9 9dfe 9d3d
00000070: 4abf 00bd 67e6 dabd 95d8 ef3b a3d1 843a
00000080: e223 3cba c003 9239 3fcc 6fba 5dfe 45b9
00000090: f6ee 12bb fb59 133b a8ef c739 147e 7b3a
000000a0: 0261 11bb 6bb8 11bc 6cf1 2b3b 00ac f4b7
000000b0: 021f fcbb 7c80 93bb 365e ee3a 2d22 45bb
000000c0: 5137 52bb 8b68 053b ccb7 5fbb 8619 963a
000000d0: f861 93b9 5a0f b33a 0dfa 2e39 c768 3a3b
000000e0: 3faa 493a 0db5 a438 1b38 a33b a4d1 bfba
000000f0: 15c1 2b3b a6fc 753a 34a8 14ba 5af0 3eba
00000100: 1ebe 48b8 631c 573a 55e7 80ba 1583 cd3a
00000110: c6ca 8f3a 74db 523a 6bd1 863b a840 18bb
00000120: 1722 5b3a 389e b539 dffb 0eba e462 e9ba
00000130: 9801 44ba 3d84 3abb e313 11bb 8a58 2fbb
00000140: 54be 00bb 3709 d53a 544e bb3a dbfd 6c3a
00000150: 1663 60b9 61bd 653b b05d dbb9 5b31 2d3a
00000160: ddfa efba b0f3 65ba 1138 b73d 760e 6e3a
00000170: da45 e8bb 8aae c4bd 69fa e4bb bf99 f3bd
00000180: ec8d 723d e978 26ba 62da aabc 8ba2 9e3d
00000190: b052 91bd d7f7 3bbd 6210 14be 0318 58bc
000001a0: ea60 99bb b8d2 5a3d 9a23 dfbd 8ca8 84be
000001b0: d0ac 81bc 4e80 0c3e 3443 6b3e 85f1 253e
000001c0: dde3 ecbb 7f1a 5fbd f386 663e faac 023e
000001d0: cf36 72bc aeb3 56bc b161 4ebd 96c8 523e
000001e0: bbe4 e63d 33b1 3bbe 9299 1d3d bbfe 8abd
000001f0: 0eff 08be d4ed eb3d eec9 8a3e 43f8 83be
00000200: 74f9 36be 423e 5c3e 6b53 d83d 74fd abbc
00000210: 2f3e 7cbe 9f54 adbb 778b 603d 4a3e 64be
00000220: 4005 a73d 5abb da3d e99b 183e 86d5 ee3d
00000230: 0cdd 113c 61b1 38be 89c7 69be c05d 773d
00000240: 0a7b a13d dc56 9a3e c991 bd3d b4fc 753d
00000250: 050e abbd 4ff2 5ebe 9f8b 43bc bdac fa3b
00000260: 783c 2c3a 2f6c b9b8 bb11 223b 9580 d139
00000270: ba93 b8ba 16a6 8fbb 2024 24bb 40da 2f3a
00000280: c5a9 133b 4ffb 9f3b 94c0 43bb f3ea c83a
00000290: 628b 393c cf40 b93b 131a f2ba bd9d 253b
000002a0: b039 0cba d477 1bbb 8055 3d3b 5c86 4c3a
000002b0: a998 3aba 60a7 26bb 918f e8ba b5f2 b23a
000002c0: 1e1c a9bb de4c 1e3a ec8b a4bb 98d5 dd3a
000002d0: 267d b2bd c29c 123d 02f8 00be a51e db3d
000002e0: a9af 8cbd 7777 733e e537 2a3e ad71 f63d
000002f0: 8925 49bc fccd 313d b98d 12be 11f5 b6bd
00000300: e5f4 e5bd 30b4 33be 3976 873d 357e 163e
00000310: c40c 823d 0f37 7fbd f23b 983d 1e38 61bd
00000320: b527 be3d 77de 4cbc 84e8 bb3d c58d 6d3d
00000330: acd9 2e3c 65d3 b13d 05b2 0e3e 5377 e83d
00000340: 4716 aa3b be89 c23d 3f71 debc 3a3b d63c
00000350: 3090 8dbe 2875 3b3e fd08 bdbb e414 143d
00000360: 0585 213e c92f bcbc a84f 533d 6239 a13c
00000370: afc4 93bc e109 9f3d b8b9 f33d 71b1 01be
00000380: e7fc 653c 04b9 b3bc f901 083e ad15 1b3e
00000390: f458 86bd 5633 a7bd 48bc 03be 4530 913d
000003a0: ed4f af3d a66e 9a3d 0e1c 00be e872 c2bd
000003b0: 9c8c a3bc c038 26bd 1233 bd3d e075 8bbb
000003c0: 2bf6 173b d95d 55bc 5d01 bd3d c89f 19be
000003d0: a2b8 b7bc d4ec a4bd b37d 47bc 02b0 39bd
000003e0: 3666 d0bd e94c cc3c bb6e d73c ac05 99bd
000003f0: 2f61 a7bd ca16 7b3d 427f 433d 3436 9dbd
0.005406123 -0.022872351 0.28075692 0.080701955 0.041626662 0.027305452 -0.09312167 -0.005886573
-0.1949592 0.03256191 0.07512502 -0.043958347 0.023687558 -0.04940986 -0.019970257 0.033851337
0.0238811 0.1011435 0.13182321 -0.113391325 -0.038650822 0.1264696 0.14208987 0.04715666
0.15092333 0.028657401 -0.0003559912 0.07714579 -0.031432427 -0.10688477 0.0073195198 0.0010133277
-0.0007176978 0.00027850084 -0.00091475615 -0.00018882142 -0.0022420264 0.0022484052 0.00038134796 0.0009593677
-0.0022183065 -0.008894066 0.0026236428 -2.916716e-05 -0.007694126 -0.0045014005 0.0018186036 -0.0030080185
-0.0032076428 0.0020356502 -0.003413665 0.0011451698 -0.00028111017 0.0013661191 0.00016687084 0.00284438
0.000769291 7.853853e-05 0.0049810535 -0.0014634621 0.0026207615 0.0009383656 -0.0005670816 -0.000728374
-4.7860776e-05 0.0008205829 -0.0009834567 0.0015679324 0.0010970465 0.00080435653 0.00411432 -0.0023231898
0.0008359267 0.00034640892 -0.0005454402 -0.0017805961 -0.0007477044 -0.0028460168 -0.0022137098 -0.0026755654
-0.0019644694 0.0016253357 0.0014290311 0.0009040513 -0.00021399217 0.0035055506 -0.00041840738 0.0006606781
-0.0018309016 -0.0008771969 0.08946241 0.00090811343 -0.007088405 -0.09603603 -0.006987859 -0.11894559
0.05921738 -0.00063504145 -0.020856086 0.07745846 -0.070958495 -0.045890655 -0.14459375 -0.013189319
-0.0046807425 0.053423613 -0.10895462 -0.2590984 -0.015829474 0.1372082 0.22974855 0.16205414
-0.007229312 -0.054468628 0.22512417 0.12761298 -0.014783575 -0.013104362 -0.050386135 0.2058433
0.112740956 -0.18329315 0.038476534 -0.06786867 -0.13378546 0.115199715 0.27107185 -0.25775346
-0.17868596 0.21508124 0.10562786 -0.02099488 -0.24633096 -0.0052896286 0.054820504 -0.22289386
0.08155298 0.10680266 0.14903225 0.1166182 0.008902799 -0.18036415 -0.22830023 0.06039214
0.07884796 0.30144393 0.09256322 0.06005545 -0.083522834 -0.21772121 -0.011935144 0.0076499865
0.000657029 -8.841638e-05 0.0024729806 0.00039959388 -0.0014082112 -0.0043838127 -0.0025045946 0.0006708242
0.002253161 0.0048822532 -0.0029869424 0.0015328809 0.011324735 0.0056534777 -0.0018470905 0.0025271021
-0.0005349172 -0.0023722546 0.0028890073 0.00078020035 -0.0007118085 -0.0025429353 -0.0017742981 0.0013652655
-0.0051608225 0.0006038676 -0.005021563 0.0016924618 -0.087152764 0.035794027 -0.12594607 0.10699204
-0.06869442 0.23776041 0.16622885 0.12033401 -0.0122770155 0.043409333 -0.14311875 -0.089334615
-0.112283505 -0.17549205 0.06614346 0.14696582 0.06350091 -0.062308367 0.07433309 -0.05498516
0.09284917 -0.012504212 0.09175208 0.05799653 0.010672014 0.086828984 0.13935097 0.11350884
0.005190644 0.094989285 -0.02715361 0.026151288 -0.2764907 0.1830641 -0.0057688938 0.036152735
0.15773399 -0.022972004 0.051589638 0.019680683 -0.018038122 0.07765556 0.119006574 -0.12665345
0.014037347 -0.021938808 0.13282003 0.15144987 -0.06559935 -0.081640884 -0.12864792 0.07089285
0.085601665 0.07540636 -0.12510702 -0.09494573 -0.019964509 -0.040581465 0.092382565 -0.004255995
0.00231875 -0.013022863 0.09228776 -0.15002358 -0.022426907 -0.08052984 -0.012175965 -0.04533387
-0.10175745 0.024939017 0.026297918 -0.07471785 -0.08172833 0.06130103 0.047728784 -0.07676354

encoder.4.bias f4 [10]
00000000: f489 0ebe bf5a c33a 8eaf 863a 866a ee3c
00000010: 15cf 193d 0bdc 78b9 ba9c 03be 493e 1ebe
00000020: 673c 033e 6057 babd
-0.13919812 0.0014904364 0.0010275708 0.029103529 0.037551004 -0.00023733095 -0.12852755 -0.15453447
0.1281601 -0.09098697

encoder.6.weight f4 [1, 10]
00000000: c847 25bd 8323 9038 cd9c 90b7 cad6 14bd
00000010: c131 1dbc ab3c a539 bc8d 033d c21b 5fbd
00000020: 5cc4 1a3d 13c6 003d
-0.04035166 6.87307e-05 -1.7239154e-05 -0.03633765 -0.009594382 0.00031516454 0.03211759 -0.05446983
0.03778492 0.0314389

decoder.0.weight f4 [10, 1]
00000000: 3622 32c0 9e27 57c0 2088 3140 d804 4740
00000010: 69b2 3ec0 4754 1bc0 b2c1 5d40 dfaf 5540
00000020: bf76 39c0 1c1d 4840
-2.783338 -3.361793 2.7739334 3.1096706 -2.9796393 -2.427019 3.4649472 3.3388593
-2.8978727 3.1267767

decoder.0.bias f4 [10]
00000000: db54 e53b 4817 283f 6b18 4e3f 7a37 b83e
00000010: a8c6 2c3e 1600 3a3f 3b68 17bf 7b4e f03c
00000020: b416 68be 9a02 21be
0.006998641 0.65660524 0.8050601 0.35979825 0.16872656 0.7265638 -0.5914342 0.029334297
-0.2266491 -0.15723649

decoder.2.weight f4 [30, 10]
00000000: 51ed 3c40 5087 9f3d c75a c9be cd98 44bf
00000010: 37a0 913f c980 ecbc 495a e9be 9f44 3fc0
00000020: ea10 8b3f 3d5c 60bf c337 f9bf 5f08 babe
00000030: 8cb6 5cbe ee06 063f ebee b5bf 0f10 563d
00000040: 2d7a d33d 37df c73f e35a 4abe 3a64 e33f
00000050: 384e 29c0 769e 71be 5271 743e 1e1a 9a3e
00000060: 62fd 45bf fbda 51bd bd08 bd3e 767e e53f
00000070: 57eb 44bf cdd1 7a3f bbba f13f 4173 9ebc
00000080: 7e62 59bd cb61 d9be 6f48 643f f80c 873e
00000090: 8ee1 fbbe 3786 c4bf 4c3a ec3e 290f 99bf
000000a0: eb74 ee3f 67c9 fd3e 941c 01be 93fb bcbe
000000b0: de11 9f3f 05f1 303e b845 95be 9369 9ebf
000000c0: 952a 233f 9656 c6bf 59b3 06c0 87b2 e3bd
000000d0: bc0e 72be 0615 283e e225 b8bf 16c8 bcbd
000000e0: c7af 443e 22d9 aa3f 92fd 92be 16dd ad3f
000000f0: 48b5 02c0 b6c2 b1be 9beb 943e 0c61 953e
00000100: bbef 27bf c09d 20be 7140 003f f127 b13f
00000110: 79e6 06bf c194 9b3f 7b3d f8bf b085 8cbe
00000120: 1a9a 37bc fec2 fb3e d217 a7bf 4b3f aebe
00000130: 960d 123f 9137 bf3f 679c a6be 172f d23f
00000140: 4c00 dd3f ef74 e13e 0c6a 6c3d 8772 883c
00000150: d956 fe3f 5bda f03e 65a9 c5be 2c8d b6bf
00000160: 18be 393f b0d2 01c0 bb6a 05c0 90ae 31be
00000170: d89f f63d 31f2 f73e a8c3 7ebf 9a56 aabe
00000180: c588 173e de8f d23f 9d4e e7be 546f 4b3f
00000190: b111 2bc0 ded3 9ebe 6652 833d 65e4 d63e
000001a0: 872f 79bf ee35 91bd 6b72 863e 393c e53f
000001b0: a9f9 42bf 9878 793f f2f5 4bc0 b7ec 48be
000001c0: 5428 2b3c 69fd 0f3f 3633 7bbf 1ab4 473d
000001d0: c575 0f3f b8f6 0b40 55e6 21bf e810 933f
000001e0: 6079 38c0 c0fd 3a3b bdd1 683e 38e7 fb3e
000001f0: ef4c 3cbf 243c 86be c685 4c3e 7a58 0540
00000200: 144a fbbe b347 9b3f 613a d83f 216b 1f3f
00000210: 7a9d 043c 67f5 cb3b 2afe 1c40 8474 863e
00000220: 4593 3cbf 744b 98bf bda9 2b3f 19e4 27c0
00000230: 05b3 c93f 9a91 ab3d ca0a 6fbe af8d b6be
00000240: 836b 8d3f 4bb9 1c3e 0e2e a9be d73f bcbf
00000250: 6745 0d3f cb5c a2bf 407f 863f 23f0 453f
00000260: f063 1fbd 323f 21be f6fd 2f40 5eb6 e03d
00000270: 7208 26bf 4a21 59bf 1bfd f13a 1e56 28c0
00000280: 7ffc 0040 9b2b 0a3b 1bf7 a5be 6428 8ebe
00000290: 4755 8f3f f18b 223d b934 8ebe 13f6 e9bf
000002a0: 2259 123f f2df 9dbf b051 7f3f 124f c33e
000002b0: fc40 323e 469e 213c 4bcd da3f 0f9a b83e
000002c0: 1db4 2bbf f452 74bf b6d7 0f3f 3959 d8bf
000002d0: ab0c 0240 41be f63e 9964 a3be 1362 36be
000002e0: de1a a23f 3f0f 223c 5774 dfbe 8853 8ebf
000002f0: c3ee c93e eddd 8ebf 7635 79bf fc84 3d3f
00000300: ad46 4b3f fbf3 0a3f e2d1 393e 275d 703f
00000310: 377f d9be a400 8b3f 3874 4ebf 1aa2 afbe
00000320: 4641 0d40 49ca d93e 3abc 113c 619b a3be
00000330: 7e9f 643f a09a 7abd 25c3 39be 6cb2 c7bf
00000340: 7ca8 1f3f da08 88bf 72c7 fbbf e030 86bc
00000350: e996 9ebd 18c9 5c3e 62c6 84bf 2f6e 303e
00000360: 4b9f 763e 93f0 b13f 3438 07bf 5e7a 8e3f
00000370: b877 ea3f 4cd0 a93e 22ea 913e 0943 553c
00000380: 195f 1040 78f0 98bd 6677 5bbf c65d a5bf
00000390: 6390 943e c711 2ec0 02a6 e93f 08d4 873e
000003a0: f064 bc3d d957 b1bd e1c7 ec3f 4b07 d63e
000003b0: 91c1 fdbe 6191 c3bf 3060 e73e e7b3 f6bf
000003c0: 44d9 24c0 91f0 3bbe 7243 f13d 2b23 113f
000003d0: 5e7b 77bf db36 cabd a9ce 353e fa1b d23f
000003e0: c4f2 b3be cdb9 9d3f 8584 edbf 72b6 bdbe
000003f0: 22e3 94be abe1 ea3e 59d3 eebf f3f3 eebd
2.9519846 0.07789481 -0.3932707 -0.76795655 1.1377019 -0.028870003 -0.45576695 -2.9885633
1.0864537 -0.87640744 -1.9470142 -0.36334512 -0.21554011 0.52354324 -1.4213537 0.05226141
0.103260376 1.5614995 -0.19761233 1.7764962 -2.645399 -0.23595604 0.23871353 0.3009805
-0.77339756 -0.051234227 0.3692073 1.7929218 -0.769216 0.9797638 1.8885111 -0.019342067
-0.053072445 -0.42457423 0.89173025 0.26377082 -0.49195522 -1.5353459 0.46138227 -1.1957752
1.862943 0.4956772 -0.12608558 -0.36910686 1.2427328 0.17279442 -0.29154754 -1.2375969
0.6373685 -1.5495174 -2.1046965 -0.11118036 -0.23638433 0.1641427 -1.4386561 -0.09217851
0.19207679 1.3347514 -0.28709084 1.3583095 -2.0423145 -0.34718865 0.29086003 0.29175603
-0.65600175 -0.15685177 0.5009833 1.3840314 -0.52695423 1.2154771 -1.9393762 -0.27445745
-0.011206174 0.49172205 -1.3054144 -0.34032664 0.5705198 1.4938833 -0.325412 1.6420621
1.7265716 0.44034526 0.05771832 0.016656173 1.9870254 0.47041592 -0.386058 -1.4261832
0.72555685 -2.0284843 -2.0846393 -0.17351747 0.120422065 0.48426965 -0.995173 -0.33269197
0.14798267 1.6450155 -0.45177165 0.7946675 -2.6729548 -0.31021017 0.06412201 0.41971126
-0.97338146 -0.070903644 0.2625917 1.7909003 -0.761622 0.97449636 -3.1868863 -0.1962155
0.010446627 0.5624605 -0.98125017 0.048755743 0.5603908 2.1869335 -0.63242084 1.1489534
-2.8824081 0.0028532594 0.22736259 0.49199843 -0.7355489 -0.2621776 0.19972906 2.0835252
-0.49079955 1.2131256 1.6892816 0.6227284 0.008094186 0.0062243226 2.453013 0.2626077
-0.73662215 -1.1898026 0.67055875 -2.623297 1.5757757 0.08377381 -0.2334396 -0.3565497
1.1048435 0.15305059 -0.3304295 -1.4706982 0.55184025 -1.2684568 1.0507584 0.77319545
-0.038913667 -0.15746763 2.7498755 0.10972284 -0.64856637 -0.8481642 0.0018462272 -2.6302562
2.0154111 0.002108312 -0.3241509 -0.2776519 1.11979 0.03968424 -0.277746 -1.8278221
0.57167256 -1.2333968 0.9973402 0.38146263 0.17407602 0.0098643955 1.70939 0.36055037
-0.67071706 -0.95439076 0.56188524 -1.6902229 2.0320232 0.48192027 -0.31912687 -0.1781085
1.2664449 0.00989133 -0.43643448 -1.1119242 0.39439973 -1.1161476 -0.973472 0.74031043
0.7940472 0.54278535 0.1814647 0.9389214 -0.4247987 1.085957 -0.80646086 -0.3430336
2.207109 0.42537144 0.008894974 -0.31954482 0.89305866 -0.06118262 -0.18140848 -1.5601325
0.6236646 -1.0627701 -1.9670241 -0.016380727 -0.077436276 0.21561086 -1.0373042 0.17229532
0.24084203 1.3901542 -0.52820134 1.1131094 1.8317785 0.3316673 0.28498942 0.013016471
2.2558043 -0.07467741 -0.8572906 -1.2919242 0.29016408 -2.719835 1.8253787 0.26528955
0.0919894 -0.08659334 1.8498498 0.4180244 -0.49561742 -1.5278741 0.45190573 -1.9273652
-2.5757608 -0.18353488 0.11780442 0.5669429 -0.9667262 -0.09873744 0.17754616 1.6414788
-0.35146153 1.2322327 -1.8556067 -0.37053257 -0.2907954 0.45875296 -1.8658248 -0.11667623

decoder.2.bias f4 [30]
00000000: c008 43bd 41fa adbe f529 28be c5e5 aebc
00000010: df47 913e c52e 9fbd d26d 393e 4a1e e9b9
00000020: 814c 9b3e 7d21 463d 968c 013e c4d5 583e
00000030: 14ca 973c e544 a2bd 7f69 093e ed05 9d3e
00000040: d1c5 683e f2af aa3e d669 ef3c afe0 723f
00000050: 8fc7 6abc 29c1 21be 2c90 363c d26b 953e
00000060: 9310 36bd f6fc aebe 1e60 583f a648 d7bd
00000070: d651 6ebe a8f4 adbe
-0.047615767 -0.3397999 -0.16422255 -0.021349797 0.28375146 -0.077725925 0.181083 -0.0004446379
0.30331805 0.04837178 0.12651286 0.21175295 0.018528976 -0.07923297 0.1341915 0.30668584
0.22731711 0.3333736 0.029225271 0.9487409 -0.014329805 -0.15796341 0.011142772 0.29183823
-0.0444494 -0.3417737 0.84521663 -0.105119035 -0.23273405 -0.3397572

decoder.4.weight f4 [60, 30]
00000000: 18dc 633f e72b b63e 08e0 1fbf 6e76 113e
00000010: f3ce 1bbe f04c 083e 49a6 29bf 83e4 c8bd
00000020: 06cb 23bf 42e0 4bbf 95b4 86bf 2189 dfbe
00000030: 60bc 40bf 263b d4be ee27 443d 47d3 b4bf
00000040: 5c2d 2a3f 6861 a0bf c1f8 6f3d bd70 cebf
00000050: 4dda 963e a902 65be e309 f6be cd32 15bf
00000060: 7d0e 28bf 78e2 2a3f 9ad8 d7bf 3e32 da3e
00000070: 793b 483e e420 443f a0f2 d23f b6c9 653e
00000080: 0138 58c0 99c2 c13f 7a53 ee3d 4a9b 6ebe
00000090: 4cb1 dec0 a033 32bd 1bd2 d8be fd29 a3c0
000000a0: 63c8 ddc0 74d8 95c0 0419 81c0 d5fe dabe
000000b0: 3022 ca3f b1b5 e9be 9b46 8040 4c60 e5be
000000c0: 21ec 873f d24e 00bf 7a29 2540 43a1 e6bf
000000d0: 30e9 d7be cbd8 b1be 6579 c7c0 fc34 0f3f
000000e0: a54e 37bf 9ba1 f43f c097 32be 672a f13e
000000f0: 850b 2fbf 898a e1be e3e8 253f 709d e0be
00000100: de14 a13e 3e55 84be ca09 663f 3c0c 05bd
00000110: 6836 a53e 1806 123f e789 843f d54e 093f
00000120: c6db 613f a0af fa3e 6f8c 8fbe 9748 9d3f
00000130: d007 e3be 6558 a73f eaae 80be 8692 d93f
00000140: 3034 14bf d504 ba3e 9a5e 183f 1300 d93e
00000150: 6db2 263f b550 60bf f3f1 d73f f2c1 e4be
00000160: 23c6 08bf 057c 71bf e370 3dbf 6b57 24be
00000170: c027 e73e d8c4 f5bd 8d80 493d 681c 1bbe
00000180: fb44 4d3f 9e24 c6bd f666 e03e dd11 403f
00000190: 87fe 663f daf1 193f 6c4e 903f 2dd8 003f
000001a0: c3d5 30be 122c af3f 60aa 1fbf 3b0f b33f
000001b0: 0796 11bc 139e c83f 355b cbbe eeaa b63e
000001c0: 30ba 0d3f fba8 163f dec7 3c3f 21b9 08bf
000001d0: d777 e43f 4379 ccbe 16ac f9be 8aeb 77bf
000001e0: 5d66 413f bcf3 033e 455f a7be 9c2b 813e
000001f0: 7f8c 00be 4ba3 2c3e 56bb 1abf 0578 9e3d
00000200: fd4f f2be 134c fabe 9536 65bf 4b5f 17bf
00000210: 66f0 78bf c55c cebe bf63 e33e 94be b4bf
00000220: 5e51 1f3f 999d c4bf a955 ff3d 498e bbbf
00000230: 3381 033f b983 d3be a76d d3be da9a 0fbf
00000240: 56ee f9be b0a4 463f d8be e9bf 3061 af3e
00000250: bdf5 a73e 3201 3e3f ae15 223f 052c cebc
00000260: bf8f 3bc0 1125 ac3f 59c5 783e 75ae 2fbe
00000270: a653 9abf 0a4a a83d c16d 1cbe 4431 7dc0
00000280: d194 94bf 1181 51bf f4c2 c0bf 852b 96be
00000290: ec8d af3f f25d 00bf f285 5540 a338 18bd
000002a0: c7e1 1f3f 6d6b cebe 503c 1340 bd29 d8bf
000002b0: 0018 bdbe 555e 66bc 1cf9 41c0 2398 b03e
000002c0: d7aa e2be 1ef2 ca3f a85b 6cbe b4d6 0b3e
000002d0: 27f2 a6bf 0a4b 84be 46db 7b3f 7a7f 00bf
000002e0: 8407 5a3e b364 d63c 63b3 9a3f c675 50be
000002f0: af67 d93d c2b2 823f ae01 aa3f 3458 a63f
00000300: 0d9c 0740 c343 c73e 29e5 d0be 7a26 c13e
00000310: b825 8fbf 74f4 f73d dd7d f03c 1cf7 c13e
00000320: 3c82 17bf 207e 123f 1db5 983e d2fe 5b3e
00000330: 4a64 643f c82f ddbe 7796 c93e fd4a 47bf
00000340: 4c20 04be d798 b3be f472 b8be aedb 3fbf
00000350: 8e76 0bbd ea29 04be a2e5 413f d29c 38bf
00000360: c457 a43e 38cb f5be d97b f93f 0340 983e
00000370: a0e0 0b3f 89f2 b53e f108 4f3f f0fb 853f
00000380: 340c 983d d8eb 9740 d014 853d 7ced 1840
00000390: 8c7a 543e 34c1 933f f42b 28bc 56e3 123c
000003a0: 886c df3f 279b e83f 6b4f 8e3e 69cf cdbf
000003b0: 1119 a03f 2eb3 92be 4e51 80bf 0172 8cc0
000003c0: ca5f 00c0 af93 adbe e665 873f af06 22be
000003d0: 18e4 093e fc98 3abe 0ae5 933f 7ad2 88be
000003e0: a1c5 de3d b0f2 913f d8ba 973f bb15 873f
000003f0: 1709 0340 ebc1 a33e 30d7 b4bd 0cc6 023f
0.8900771 0.3558037 -0.6245122 0.14205334 -0.15215664 0.133106 -0.66269356 -0.0980921
-0.63981664 -0.79639065 -1.0523859 -0.4365931 -0.7528744 -0.41451377 0.047889642 -1.4126977
0.6647546 -1.2529726 0.05858684 -1.6128155 0.29463425 -0.22364296 -0.48054418 -0.5828064
-0.6564711 0.66751814 -1.6862977 0.42616457 0.19553937 0.7661269 1.6480293 0.22440228
-3.3784182 1.5137511 0.11637016 -0.23301426 -6.9591427 -0.043506265 -0.42347798 -5.0988755
-6.9307113 -4.6826725 -4.0343037 -0.42772546 1.5791683 -0.45646432 4.008619 -0.4480003
1.0618936 -0.5012027 2.5806565 -1.8017963 -0.42170095 -0.34735712 -6.2335687 0.5594022
-0.7160438 1.9111818 -0.174407 0.47102663 -0.6837695 -0.44051006 0.6480848 -0.43870115
0.31461233 -0.25846285 0.89858687 -0.03248237 0.3226807 0.5704055 1.0354584 0.53635913
0.8822597 0.48962116 -0.2803683 1.2287778 -0.44341898 1.3073851 -0.2513345 1.699784
-0.5789213 0.36331812 0.5951935 0.4238287 0.65116006 -0.8762315 1.6870712 -0.4467922
-0.5342733 -0.94329864 -0.74000376 -0.16048972 0.45147514 -0.120004356 0.04919486 -0.15147555
0.8018338 -0.09674953 0.43828553 0.7502726 0.9023213 0.6013466 1.1273932 0.5032986
-0.17269044 1.3685324 -0.62369347 1.3989023 -0.008885867 1.567324 -0.39718023 0.35677284
0.55362225 0.58851594 0.73742473 -0.53407484 1.7849072 -0.39936265 -0.48764104 -0.9684378
0.7554682 0.12885946 -0.32689872 0.25228584 -0.12553595 0.16859166 -0.604421 0.07737736
-0.4732665 -0.48886165 -0.8953641 -0.5912978 -0.9724182 -0.40305153 0.44412038 -1.412066
0.6223353 -1.5360595 0.1246751 -1.4652797 0.5136902 -0.41311434 -0.41294596 -0.5609566
-0.48814648 0.77595043 -1.8261366 0.34253836 0.3280467 0.74220574 0.6331433 -0.025167475
-2.9306486 1.3448812 0.24294032 -0.17156394 -1.2056777 0.08217247 -0.15276243 -3.956132
-1.1607915 -0.81837565 -1.5059495 -0.29330078 1.3715186 -0.5014335 3.3363004 -0.037163388
0.62453884 -0.40316334 2.3005562 -1.6887738 -0.36932373 -0.014060576 -3.0308294 0.3449107
-0.44270965 1.5855138 -0.23081839 0.13656121 -1.3042649 -0.258385 0.9838146 -0.50194514
0.2129193 0.026171064 1.2085994 -0.20357427 0.10615479 1.0210803 1.3281763 1.2995667
2.1188996 0.38918886 -0.40799835 0.37724668 -1.1183386 0.121071726 0.029356891 0.37883842
-0.59183097 0.572237 0.29825678 0.21483925 0.8921553 -0.43200517 0.39372608 -0.778488
-0.12902945 -0.35077545 -0.36025202 -0.7494458 -0.03404861 -0.12906614 0.75741017 -0.7211429
0.3209821 -0.48006606 1.949092 0.29736337 0.54639626 0.35536602 0.8087302 1.046751
0.074242026 4.7475395 0.0649811 2.389495 0.20749873 1.1543336 -0.0102643855 0.008965334
1.7454996 1.8172349 0.27794966 -1.6078922 1.250765 -0.28652328 -1.0024812 -4.3889165
-2.0058465 -0.33901736 1.0577972 -0.15822862 0.13465917 -0.18222421 1.1554272 -0.2672308
0.108775385 1.1402187 1.1853895 1.0553507 2.0474298 0.31983885 -0.08830106 0.51083446

decoder.4.bias f4 [60]
00000000: eead a1bf 6bc8 9bbe 958e 923f ad39 913f
00000010: e7ac a6bf e9de d7bd 414c 663d a685 743f
00000020: d8f3 b23d 2241 993f 4836 ad3e 60aa f63e
00000030: a098 a13f 9281 0c3e 538e adbf 7ae6 bf3d
00000040: dd5f 98bf 113e a0be 2693 40be 5bd6 50bd
00000050: 290c c5be 1e3b b1bf a3b9 b5be 0e99 9b3f
00000060: 8bf5 f5be 68d1 a0be 1a42 ab3f 9c4e 25be
00000070: 54c6 1abf c5a1 18bf 0f66 33bf 552d bcbe
00000080: 707f 8b3f 7149 83be 16a6 28be 167d a43f
00000090: 6681 edbe c847 8c3f 4cfe 0d3e 3d8c b03f
000000a0: b8e3 9f3d ba05 a43f fb7d d63e faa1 28bd
000000b0: 3d2c 873e 91f9 91bf 7a06 663f 2047 8abe
000000c0: 02cf ad3f ef44 5e3e dce8 47be f359 1a3f
000000d0: 430a a03f f3e4 df3e a503 61be dc1c 923f
000000e0: 2da9 b43c aee7 14bf 84cd 42bf 7d68 8dbf
-1.2631204 -0.30426344 1.1449763 1.1345726 -1.3021516 -0.105405636 0.056225065 0.9551643
0.08737916 1.1973002 0.33830476 0.4817686 1.2624702 0.13721302 -1.3559059 0.09370132
-1.1904255 -0.31297353 -0.18806133 -0.050985675 -0.3848584 -1.3846166 -0.35493192 1.2156084
-0.48038897 -0.31409764 1.3379548 -0.16143268 -0.60458875 -0.5962184 -0.70077604 -0.36753336
1.0898266 -0.2564197 -0.16469607 1.2850673 -0.46387786 1.0959406 0.13866538 1.3792797
0.07807106 1.2814248 0.4189299 -0.041170098 0.2640094 -1.1404287 0.8985363 -0.2700739
1.3578799 0.21705984 -0.19522423 0.602935 1.2503132 0.43729362 -0.21974047 1.1415057
0.022053326 -0.58166015 -0.7609484 -1.1047512

decoder.6.weight f4 [41, 60]
00000000: 277f 7dbc 0f91 44ba 346b edbb 514f fb3c
00000010: 5dd5 35be cb5c 47bd 6996 a93d 102a cf3e
00000020: b4b4 633d ff64 e1bd ef04 1e3f a108 babd
00000030: 4b3b 003e 3483 603a 8a80 f5bb 50f0 57bd
00000040: 9aeb e33d 8c81 203f 5d04 c33d 751e 26bd
00000050: ec7f 9abe 6cab 8dbd 8a2a 563d 9c14 bbbc
00000060: cafc 1ebd 008d 083e dfe2 6e3d 5b82 7341
00000070: 3dbc 5cc0 0412 ebbd 8066 cabc d3ef e13e
00000080: af4b 6e3d 6096 013d 0667 b4bd 846b 1f3e
00000090: 3cb6 53c0 6b1f 8c3d 4209 ae40 fafb abbd
000000a0: 3fd4 37bc 1139 4abd b2fa c2bd 1195 803e
000000b0: d7d1 d6be 424d 903d d05d a13e a46f 773e
000000c0: 9a57 b73c 8aa9 2abd c569 2f3f aaeb 02be
000000d0: dd1b 533d a7b6 5c40 a616 ff3c af64 b43c
000000e0: d725 553b 35f9 74bd efcd 8dbe 321d b6bd
000000f0: c817 b1bd 74ea 163e dc41 2b3d b144 053e
00000100: eaf1 e2bd d825 5a3e 4d61 453c 3a06 c83c
00000110: 704e 9cbc af65 e33d d3a6 7c3c f03a 1abd
00000120: b594 a03d 0544 4abf a637 78bd 3c00 00bf
00000130: 4c34 e4bb a0aa 013d 3111 1339 6519 533d
00000140: ba06 e8bc e8a2 b0bd 9851 efbd c37c f73d
00000150: 5304 8abd 6395 bf3d 9062 8d3b a5cc 853e
00000160: 7f14 06be e699 7a3d 9ec6 eabd e202 843c
00000170: fa64 0a3e a297 71bc f6d9 443d 52a4 40bd
00000180: 1678 42be 4916 c53d c4f4 2f3e c0be 74bd
00000190: 6d0d a53d d7be 27bc d418 9e3d a777 3fbf
000001a0: 3005 54bd 95ec 863d 6c97 653c 8e0f ba3c
000001b0: 8cd5 ef3c 85e3 7c3d 32ad 0f3d bb8d 2f3d
000001c0: ba71 1bbd d93d 8d3e 0012 18bf 8cc3 b73d
000001d0: 8b9b 933f 434e 63bc f30e 203d 1bb7 1d3d
000001e0: 0eed a1bd 6ab5 2c3d e584 ab3d 9a84 f2bc
000001f0: dcbd a23d 4bc3 cfbc 6d7b a23d 36f1 9d3d
00000200: f25d d93d 16f9 183d 48a5 91bd ae66 c83c
00000210: 7bdc fdbc 05c6 b0bd 6223 be3d a239 b93f
00000220: c9c4 cabd afac 97bd 6a56 333d c6d9 db3c
00000230: b4ba ed3d 7cd2 bdbd 5fbe 08bd d6e1 a23c
00000240: d957 f9bd 49f5 b43d e124 35bd fc60 693e
00000250: 41d5 0dbe e307 9f3c 2710 c5bd 17d3 b83b
00000260: d257 0b3d ba0f 323e b2ac 703d b27b dcbd
00000270: efa0 11be 39e6 febd 0f57 e5bc eb45 e33c
00000280: e7b8 2b3d 9ed6 93bd 5115 c6bd 8eb0 ec3f
00000290: a4ee 6dbc 2d77 e13d 1fa5 3aba bf21 0dbe
000002a0: 6e73 49bc b399 79b9 4ef5 b1bd 7718 d53d
000002b0: ad7d 98bd a3c0 f33d b11e 73be daf1 f53b
000002c0: 500b 52bd c195 e03c b092 f1bd 377a cbbd
000002d0: b6d5 7c3c c8c2 a03e 4582 c8bd e440 a13d
000002e0: 8841 ebbd c824 153e c6a2 983e 5e2f e6bd
000002f0: d2ba 303e 5f94 f13d d96e f33c eb8d ad3c
00000300: 391e 193c 4a23 28bd ca7e 8fbd ee54 0f3e
00000310: 91d7 3e3d 014a 203d eb0c 7c3e 9b86 0a3d
00000320: 8519 113d 702b 0bbd 7906 743e 07c8 07be
00000330: 9f57 be3e 05e1 0fbd 5068 ae3d 6526 a8bd
00000340: c94c 8c3d 8665 b63e 8740 933d 3f1b 193d
00000350: 0090 e43d b1d1 d53e 4f00 1e3d 960a cebb
00000360: fdd3 6fbd 3747 d53c a981 a2bd cfe0 1abd
00000370: 31db 133e b084 ae3d 151a eebd 672e 9b3d
00000380: 1cc0 053e dd6c b5bd 44d6 9ebb b70e 583d
00000390: 4e1f a6bd 8a45 bc3d 356b 11be d721 80be
000003a0: 081a e63b 8176 5cba d0d2 ffbf 47ca fc3c
000003b0: e656 49bd 9899 303e b4b0 6d3d 4beb 543d
000003c0: ae83 ddbc b534 5ebd 5c45 573c b1f0 f23d
000003d0: f40b e0bd 743b 8c3c 015f 6c3d 69f7 1ebd
000003e0: bcf0 ce3d 2e08 a2bd 595f 333d b1e2 05bc
000003f0: f975 163c e2f5 cb3b 6ccd 233d d195 8bbc
-0.01547221 -0.0007498422 -0.0072454456 0.03067747 -0.17757173 -0.04867248 0.082806416 0.4046178
0.055592254 -0.110055916 0.6172628 -0.09083677 0.12522618 0.00085644727 -0.0074921297 -0.052719414
0.11128922 0.6269767 0.095223166 -0.04055639 -0.30175722 -0.06917462 0.052286662 -0.022836976
-0.038815297 0.13335037 0.05832183 15.219325 -3.4489892 -0.114780456 -0.024707079 0.44128284
0.058177646 0.03163755 -0.08808713 0.15568358 -3.3079977 0.0684193 5.43863 -0.0839767
-0.011220037 -0.04937083 -0.095204726 0.2511373 -0.4195697 0.07045986 0.31516886 0.24163681
0.022380639 -0.04166559 0.68520766 -0.12785211 0.051540244 3.4486482 0.03113873 0.022020666
0.0032523775 -0.059807975 -0.27696177 -0.08892287 -0.08647114 0.14737874 0.041810855 0.13014485
-0.11081298 0.21303499 0.012047124 0.024417032 -0.01908037 0.11103379 0.015420633 -0.037653863
0.078408636 -0.7901004 -0.060599945 -0.5000036 -0.006964242 0.03165686 0.00014025417 0.05153789
-0.02832352 -0.08624822 -0.11685485 0.12084343 -0.06739106 0.09354665 0.004314728 0.26132694
-0.13093756 0.061181925 -0.114636645 0.016114656 0.13515082 -0.014745625 0.048059426 -0.047031708
-0.18991122 0.09623391 0.17183214 -0.059752226 0.080592014 -0.010238371 0.07719579 -0.7479195
-0.05176276 0.06588093 0.014013153 0.022712495 0.029276632 0.061740417 0.03507728 0.042859774
-0.037950255 0.2758625 -0.59402466 0.089728445 1.1531843 -0.0138736395 0.039076757 0.0385047
-0.07906543 0.042165197 0.08374957 -0.029604245 0.07946369 -0.025361678 0.07933698 0.07712023
0.10613622 0.03734692 -0.07111603 0.024463024 -0.030988922 -0.08631519 0.092840925 1.4470713
-0.09900815 -0.07405984 0.043783583 0.02683724 0.116078764 -0.09268662 -0.033384677 0.019883078
-0.12174959 0.08835847 -0.044224624 0.22790903 -0.13850881 0.01941294 -0.096222214 0.0056403982
0.0340193 0.17388812 0.058758445 -0.107657805 -0.14221548 -0.12446255 -0.027995614 0.0277433
0.041924383 -0.07218669 -0.096720345 1.849138 -0.014522228 0.11009059 -0.0007119942 -0.13782404
-0.012295587 -0.00023803748 -0.08689366 0.10405057 -0.07445846 0.11901977 -0.23742177 0.0075056376
-0.05128032 0.027415158 -0.117955565 -0.0993542 0.015431812 0.31398606 -0.09790472 0.07873705
-0.114871085 0.14564812 0.29811686 -0.11239503 0.17258766 0.11795878 0.029715942 0.021185836
0.009345585 -0.04104928 -0.07006605 0.13997242 0.0465923 0.039133076 0.24614303 0.033819776
0.035424728 -0.033976972 0.23830594 -0.13259898 0.37176225 -0.035126705 0.0851599 -0.08210448
0.06850583 0.3562433 0.07190042 0.0373795 0.11160278 0.41761544 0.038574513 -0.006287883
-0.058551777 0.026034934 -0.07934887 -0.03781205 0.14439084 0.08521402 -0.116260685 0.0757721
0.13061565 -0.08858655 -0.00484732 0.05274841 -0.0811144 0.09192951 -0.14201052 -0.25025818
0.007022146 -0.00084099924 -1.998621 0.030858172 -0.04915514 0.17246091 0.058029845 0.051982205
-0.027040329 -0.054249484 0.013139095 0.118623145 -0.1093978 0.017118193 0.05770779 -0.038810167
0.1010451 -0.079117164 0.043792102 -0.008171723 0.0091834 0.00622438 0.039990827 -0.017039211

decoder.6.bias f4 [41]
00000000: 434a a2bc 843c 0cbc decf 8dbd 81b5 663d
00000010: e6cf 2fbc 68f5 b3bd a221 0a3d 9966 60bd
00000020: 6522 1c3e 842a 933f ceae 31bd f64d 023e
00000030: 62bb 5f3d 7b94 133f 2fa3 f33e 7c3d b53d
00000040: bda8 1b3e 69f4 fd3f 5b73 9dbd dba0 9f3d
00000050: 03cf 8d3d d203 a83e 36a3 edbd 2b98 3ebe
00000060: 7047 693d 2ad9 a6bd cbc2 d2bd e94c f73d
00000070: 0ccd a43d 6757 82bc 0217 b5bc a96d 17be
00000080: f0f9 1dbe fcba c6bd 3e6c b0bc 8759 423d
00000090: 11ea 163e 24f7 7fbd 9f5c 24bc 3d93 cfbd
000000a0: 9e9d bbbd
-0.019810801 -0.00855935 -0.06924413 0.05632544 -0.010730719 -0.08787042 0.03372348 -0.054785345
0.15247495 1.149735 -0.043379597 0.12725052 0.05462206 0.5764844 0.47585437 0.08849618
0.15201087 1.9840213 -0.07688018 0.077943526 0.0692425 0.32815415 -0.11603396 -0.18612735
0.056952894 -0.081468895 -0.1029106 0.12075216 0.08046922 -0.015910817 -0.022105698 -0.14787926
-0.15427375 -0.09703633 -0.021535989 0.04744866 0.14737727 -0.06249155 -0.010031848 -0.10135505
-0.091609225

estim_net.0.weight f4 [10, 3]
00000000: d3db 8bbe bce3 11bf d69a 79be c9fd 1bbe
00000010: 6fde 09bf f64e e5be 0ea0 f3be b628 efbd
00000020: d6f4 67bd cf41 58be 3897 af3e 3f37 353a
00000030: 09d4 d93e b43a ddbe 150c a9bd 20c6 b6bd
00000040: 3461 b3be 09bb 5abe 823b 9cbc 3b7d c9be
00000050: a6fe 633d d9ae a3be fb17 b6bd 840d 683e
00000060: 2188 11bf e9c0 833d aaf9 453e 0f33 62be
00000070: 63e3 8b3e f2db d83d
-0.2731615 -0.5698812 -0.24375471 -0.1523353 -0.5385503 -0.44786805 -0.4758305 -0.11677687
-0.056629978 -0.21118854 0.34295058 0.00069128344 0.42544582 -0.4320885 -0.082542576 -0.08924508
-0.35035098 -0.21360411 -0.019071344 -0.39353356 0.055662774 -0.31969336 -0.08891293 0.22661406
-0.5684834 0.06433279 0.1933352 -0.2208979 0.2732192 0.10588826

estim_net.0.bias f4 [10]
00000000: b836 023f 5e80 0dbf 8068 e33e 61ef c6be
00000010: 38e6 c0be 3dc0 103f f2ab e6be 197d d9be
00000020: 24f8 6c3d 14b9 013f
0.50864744 -0.55274 0.44415665 -0.38854507 -0.37675643 0.5654333 -0.4505306 -0.42478254
0.057853833 0.5067303

estim_net.2.weight f4 [4, 10]
00000000: 2a0c 763e e3cc 94be d518 79bd cf08 3d3c
00000010: c70b 173d b0b2 db3b b193 83bd 2432 8b3e
00000020: 5793 32be 7a4b 743e a806 8abb ace0 7a3d
00000030: 45b2 80be fe76 363e d84b bf3d 60bf 073d
00000040: d222 993e fc10 dfbd c6e7 41be b162 a93d
00000050: 36ce 813e 27f9 033e 3a89 7abe 7932 55be
00000060: 6320 b0bb 85ea 49be 0652 403e a4f3 ec3d
00000070: 876a e1bd 58f0 f3bc c0a4 babd a232 073e
00000080: 89c9 ae3d 3ce5 8c3e 3c4f 88be 188b dabd
00000090: 3569 78be ea72 5fbc cc4c f7bd 48e7 51be
0.24028078 -0.29062566 -0.060814697 0.011537745 0.036876466 0.006704651 -0.06424654 0.27186692
-0.17439018 0.23856917 -0.0042122193 0.06124942 -0.2513601 0.1781883 0.09340638 0.033141494
0.29909378 -0.108919114 -0.18936071 0.08270777 0.2535264 0.12888013 -0.2446641 -0.20820035
-0.0053749545 -0.19718368 0.1878129 0.11569908 -0.110066466 -0.02977769 -0.09113455 0.13202909
0.085345335 0.27518642 -0.2662295 -0.10671061 -0.24258883 -0.0136382375 -0.12075195 -0.20498383

estim_net.2.bias f4 [4]
00000000: 7886 7abc 56db 5abe a1c2 3bbe 476d ce3d
-0.015290849 -0.21372733 -0.18335964 0.10079437
