exam/DAGMM_best.pth (torch, 44533 bytes, 19 tensors)

encoder.0.weight f4 [60, 41]
000000 d7 11 8f be 6f 9b 8d 3d e4 5c 93 3d 75 4d c4 bd
       -0.27943298 0.06914412 0.07195452 -0.09585086
000010 9d 7a 3f 3d 66 ba ef bd 89 f0 5d 3c d9 31 15 be
       0.046747793 -0.117054746 0.013546118 -0.14569797
000020 42 3f b0 bd 68 16 a9 bd ba d4 00 3d cb e3 03 3d
       -0.086058155 -0.08256227 0.03145287 0.032199662
000030 b1 3b 95 3a 0c fc 9b 3d e1 99 d0 3d 59 d7 46 bd
       0.0011385587 0.076164335 0.101856 -0.048545215
000040 22 31 42 3d b5 35 a3 3d 4b bd 3b 3e 87 88 97 bd
       0.047410138 0.07969228 0.18333928 -0.073990874
000050 fa 7a 53 3d 85 61 ac 3d fc 31 d3 bd f6 02 e4 bd
       0.05163095 0.08417038 -0.10312268 -0.11133377
000060 e2 8a c4 3d 9a 59 34 bd 0c 23 c6 3e d7 6b 35 3e
       0.09596802 -0.044030763 0.38698614 0.17716919
000070 af 16 e8 bd eb 35 ae 3d bc 4f 5a 3d 6e 1d 34 3d
       -0.113324516 0.08506378 0.053298697 0.04397338
000080 a0 68 e3 bd b6 72 25 3d 24 28 95 3d 10 a8 cd bd
       -0.1110394 0.0403926 0.07283047 -0.10041821
000090 c6 d8 51 bd e8 43 9f 3d 15 61 80 bd 2f bd 02 3b
       -0.051232122 0.07776624 -0.06268517 0.0019949188
0000a0 8e 42 5d bc 58 c5 94 3e c9 26 2c be ef 64 51 3d
       -0.013504637 0.2905681 -0.1681167 0.05112165
0000b0 a2 db 2d 3e b2 92 ae bd 19 fb 8b 3d 29 db 65 bd
       0.16978315 -0.08524074 0.068350025 -0.05611721
0000c0 bf f6 18 3e 04 d0 1f bd 2b 01 fa bc 75 46 2d bd
       0.14937876 -0.03901674 -0.030518135 -0.04230352
0000d0 5a 86 39 3d 1f 6a 49 be 34 ab c9 3d 7b 9c 22 3e
       0.045294143 -0.19669388 0.098471075 0.15880005
0000e0 95 2e 57 bd a5 62 90 3d 74 c0 8b bd b2 df b9 3e
       -0.05253466 0.07050065 -0.06823817 0.36303478
0000f0 18 a3 0a 3e ad ef f1 3d b3 78 05 be f7 ee 10 3d
       0.13538778 0.11813293 -0.13034324 0.035384145
000100 72 7e 6d 3e 25 b2 ed 3d 53 ad 35 3d 00 11 4a be
       0.23192766 0.11606244 0.044354748 -0.19733047
000110 6d 49 10 bc 27 3f 22 bd 21 ef b3 3d 06 47 1c 3f
       -0.008806569 -0.039611008 0.087858446 0.61045873
000120 b7 26 05 be f0 1c 02 3c 5f 3b c7 3c 9f c4 cc 3e
       -0.1300305 0.00794147 0.024320303 0.3999376
000130 32 bc 31 3d eb d4 11 3d a4 c7 6b 3d 97 38 94 3d
       0.043392368 0.035603445 0.05756344 0.07237356
000140 1e f0 a0 bd f3 47 1b 3d 8b a4 c1 3e c8 31 2b be
       -0.07858299 0.037910413 0.3782085 -0.16718209
000150 20 8f 80 3d 12 83 91 bd 5d d9 0d 3e bd 78 e4 bd
       0.06277299 -0.07105078 0.13852449 -0.111558415
000160 ef af 69 3e ac a5 b9 3c a5 0c 80 3e 8a d7 b2 3e
       0.2282102 0.022662006 0.25009647 0.34930068
000170 ee b6 13 3e ff 83 1b bf d2 11 d0 bd 51 9f 91 3e
       0.14425251 -0.60748285 -0.10159649 0.2844186
000180 28 6e 95 3d 6d 9b 2d be 3d 3c 66 3c c0 ef 1f 3e
       0.07296401 -0.16953821 0.014052448 0.15618801
000190 47 ae 7a 3e e1 a4 18 be d7 08 21 bd f4 3f 7f 3e
       0.24480544 -0.14906646 -0.03931507 0.2492674
0001a0 24 a3 26 3d b9 7a 16 3e bc 3f 38 bc 41 f0 11 3d
       0.040682927 0.14695252 -0.011245664 0.035629515
0001b0 fa 60 30 bc d4 31 1b be eb 01 ed 3c a3 43 e3 bd
       -0.0107653085 -0.15155727 0.028931579 -0.11096885
0001c0 91 c6 57 be c8 cb 4f be a3 b2 b5 3d 84 5d 1e bd
       -0.21071841 -0.2029258 0.08871963 -0.038663402
0001d0 e1 4c 98 bd 39 4c 3d 3e 9c a7 c4 bb 49 9c 4d 3e
       -0.074365385 0.18486108 -0.006001426 0.2007915
0001e0 72 36 4d 3d b8 cb 1e be 3e e1 55 3d ad 75 b1 3e
       0.05010075 -0.155074 0.05221676 0.34660092
0001f0 6c b8 ac 3e 44 c1 92 3c d2 ac 82 3e 9a 4d c5 bd
       0.33734453 0.017914422 0.25522476 -0.09633942
000200 3e 33 3c bc 19 58 d1 bc 28 76 dd 3c 48 3e cd 3d
       -0.011486826 -0.025554704 0.02703388 0.10021645
000210 36 2d ad 3d 05 ad 35 be 59 d0 34 be 11 40 89 3d
       0.08455889 -0.17741783 -0.17657603 0.06701673
000220 f2 6b 98 be 3a 33 96 be 4e 1a dc bd 82 0b 8f bc
       -0.29769856 -0.29335958 -0.10747205 -0.017461542
000230 90 4f 42 be e5 c1 31 3e 8a cf b5 bd 5c 61 83 be
       -0.18975663 0.17359121 -0.088774756 -0.25660217
000240 87 8f b4 3d 2b 92 0a be 21 24 dc bd 0d 47 9f 3b
       0.08816438 -0.13532321 -0.107490785 0.004860765
000250 05 18 b6 3d 94 8f 48 be a0 65 96 bd e9 11 c4 3d
       0.088913 -0.1958602 -0.07343602 0.095737286
000260 d2 4b 3b 3f b5 c0 6a bd 0a 53 07 3e d6 2c 06 be
       0.7316257 -0.057312686 0.1321527 -0.13103041
000270 0c 1a b1 bd ad bb 43 be eb 18 29 3e 92 1f 53 bd
       -0.08647546 -0.19114561 0.16513412 -0.05154378
000280 44 3a 94 bd 14 d2 23 be a3 36 85 bd 07 84 16 3d
       -0.07237676 -0.15998107 -0.06504562 0.036747005
000290 85 5f e0 bd d0 d0 b4 3e 78 2c a9 be cc 1e 13 be
       -0.10955719 0.3531556 -0.3304174 -0.14367217
0002a0 54 fc 3c 3d bb d4 f4 3e ee b3 11 be 89 b7 54 be
       0.046139076 0.4781855 -0.14228794 -0.20773138
0002b0 70 76 d5 3c 7e 6d 8d be 81 09 7e be da bf e6 3d
       0.026057452 -0.27622598 -0.24808313 0.112670615
0002c0 e3 80 2c 3e c1 47 a6 3d 63 30 a5 3d 07 62 48 bc
       0.16846041 0.08119155 0.0806587 -0.012230403
0002d0 a8 5b 7a 3d 0e fd ba be ce cc 69 bd 85 08 2f bc
       0.061122566 -0.3652119 -0.057080083 -0.010683184
0002e0 73 ab 64 be 89 12 85 bd f6 e1 96 be 11 e7 f6 bd
       -0.22331028 -0.06497676 -0.2946927 -0.12055791
0002f0 bc 10 92 be 7d 33 2b bd e6 a9 ef bd 6c 15 21 bd
       -0.28528392 -0.04179715 -0.117023274 -0.03932707
000300 9f a8 3e 3e 75 73 eb bd 9f e3 6f bf 88 b8 31 3f
       0.18619011 -0.11496631 -0.937067 0.694222
000310 ef 7f ec 3d 81 03 20 3e b7 9f 22 bf 72 fd 88 be
       0.11547839 0.15626337 -0.63524956 -0.26755863
000320 de 9a 43 bd 5f ee 05 3e 50 84 76 bd fc f8 ab 3d
       -0.047755115 0.13079213 -0.060184777 0.083970994
000330 b0 35 a2 be a4 fa 1b bd 03 14 a2 bd c4 42 0d be
       -0.31681585 -0.038080826 -0.07913973 -0.13795
000340 ff 6b 8b 3c 90 75 30 3d 9e a5 35 3d b8 77 83 be
       0.01701927 0.043080866 0.044347398 -0.25677276
000350 0d d4 57 be 04 39 76 be 70 ba c8 be de f9 08 3d
       -0.21076985 -0.24045187 -0.3920474 0.033441417
000360 42 f7 5b 3e 2b b7 85 bd 39 a9 aa 3d e3 67 91 bc
       0.2148104 -0.06529077 0.08333058 -0.017749732
000370 83 2f 40 be 82 61 2f 3d f9 91 62 be 9d f2 93 bc
       -0.18768124 0.0428176 -0.22125997 -0.018060023
000380 24 99 1c 3e cb fe 71 be 68 3c 4e be c3 ba 37 bd
       0.15292794 -0.23632352 -0.2014023 -0.044855844
000390 c6 a9 a4 bd 41 00 cb 3c 13 75 97 3e d9 22 41 3c
       -0.08040194 0.024780395 0.29581508 0.0117880935
0003a0 5d 2c f1 3c 7a 71 02 3e f4 eb cf bd bd e0 48 be
       0.0294401 0.127386 -0.10152426 -0.19616981
0003b0 30 bb 88 bd c4 84 11 3c a2 c8 6a 3c 55 59 0d bd
       -0.06676328 0.008881751 0.014330061 -0.03450902
0003c0 7e 2e d2 bd 12 e5 a5 bc d5 8b b0 3c 5d fd d0 bd
       -0.10262774 -0.02025083 0.021551052 -0.10204575
0003d0 fa cc 02 be 3f 1d 22 bd 48 ca 6a 3e 5d 76 e3 bd
       -0.12773505 -0.039578672 0.22928727 -0.111065604
0003e0 a9 26 21 3d a5 11 42 be 41 c6 87 3c b0 22 a2 bd
       0.03934351 -0.18952043 0.016574027 -0.07916772
0003f0 e5 c4 38 be 6a f3 15 be 32 58 b5 bd 22 ae 6a bd
       -0.1804386 -0.14643636 -0.088547125 -0.057294972

encoder.0.bias f4 [60]
000000 48 23 b9 3b f0 38 25 be 5f ed 4a be b1 63 64 3d
       0.005649958 -0.16135001 -0.19817112 0.055759136
000010 80 0a b6 3e 8d 91 b1 3d ed 1d 04 bd c1 a0 7d 3d
       0.35554886 0.0867034 -0.032255102 0.061920885
000020 ab bf 62 be 8a 58 76 be 6b 5e a2 bd e2 fb 95 3e
       -0.22143428 -0.24057212 -0.07928165 0.29293734
000030 b2 90 33 bd 3a 8d 04 bf 35 3b 0e bd 54 e6 b8 3d
       -0.043839164 -0.51777995 -0.034724433 0.090283066
000040 65 6c b0 bd 99 28 c3 bc bb be 24 3e 0f ab 55 3e
       -0.086144246 -0.02382307 0.16088383 0.20866035
000050 12 79 19 be 71 1a fc 3d df 15 cf 3d 2f a7 1c bd
       -0.14987591 0.12309731 0.101115935 -0.038245376
000060 17 a1 2f 3d 66 df aa 3c e0 69 38 3c 9f 69 99 3d
       0.042878237 0.020858478 0.011255711 0.07490849
000070 b9 2f ce be ac dc 27 3d 72 cd 64 3d e7 ea c0 bc
       -0.40270784 0.040981933 0.05585999 -0.02354951
000080 80 30 8a 3d 7a d6 51 3d 37 5c 2a bd bc 6e a7 3c
       0.06747532 0.05122993 -0.04159185 0.020438544
000090 73 ec 29 3e ad 8b 49 bd 0a 12 0a 3e f0 7f d7 bd
       0.16594104 -0.04920547 0.13483444 -0.10522449
0000a0 c0 81 e6 bc a0 a5 21 be 42 04 2f 3e 2b 59 cb bd
       -0.028138041 -0.15785837 0.17091468 -0.09929117
0000b0 b8 c1 23 bc 61 f9 83 be 33 3f 63 bc 8e 49 b9 bd
       -0.009994917 -0.25776199 -0.013870048 -0.090472326
0000c0 35 bc 8b 3e 31 cc 83 bd 51 54 5e 3e ba 4f 6a bd
       0.27292028 -0.06435431 0.21711852 -0.05720494
0000d0 70 05 b0 3d c7 96 23 3d bd 26 85 bd 06 c7 3c be
       0.08594787 0.039938714 -0.06501529 -0.18435296
0000e0 8d e2 0e 3e dd 7c 8d be ca e5 0f 3e e0 cb 20 be
       0.1395361 -0.27634326 0.14052501 -0.15702772

encoder.2.weight f4 [30, 60]
000000 99 b0 5f bd d5 70 27 3e ec 85 13 3d 37 f2 10 3e
       -0.054611776 0.16351636 0.03601639 0.14154898
000010 df 12 61 bd 98 a6 db 3c 49 50 29 3d d4 29 96 bc
       -0.054949638 0.026812837 0.04133633 -0.018330492
000020 1b d0 98 bd 65 91 a1 3c f5 1b b7 bc db 8d 8f bd
       -0.07461568 0.01972265 -0.022352198 -0.07009479
000030 8e b0 a8 3d b2 ff 75 bd 6e 0c 02 3c 3e d3 ad 3d
       0.082368 -0.060058303 0.007937534 0.08487557
000040 91 dc 3e bd 73 72 20 bd 4f 04 9a bb 58 9c ee ba
       -0.046597067 -0.039171647 -0.0047002207 -0.0018204553
000050 aa 6f 2b bd d0 d9 10 bd 71 d5 42 3e 18 e4 75 bc
       -0.041854538 -0.035363972 0.19026734 -0.015007995
000060 36 9e 8a bc bc 94 8f 3c 67 60 b4 3c 8d 3e f8 3d
       -0.016921144 0.017526977 0.022018624 0.121213056
000070 fd 9f be bc a4 dc 0c 3d 8f f8 67 bd 37 16 53 bd
       -0.023269648 0.034390107 -0.05663353 -0.051534858
000080 a1 10 3c 3c 55 92 e6 3d f6 b9 f2 3d d6 06 ec bd
       0.011478574 0.11258379 0.118518755 -0.11524741
000090 b1 b3 dd bc 44 df 0a 3e 82 05 7d 3c cf f7 fd bd
       -0.027063223 0.13561732 0.015443208 -0.12400781
0000a0 4c bb a7 3d 12 58 10 3e 24 40 b4 3c ad 7c 00 be
       0.08190021 0.14096096 0.02200324 -0.1254756
0000b0 af d6 0f 3d 8c 20 cb 3c 27 e2 56 bc 3e bf 71 b9
       0.035116848 0.024795793 -0.013115442 -0.00023054794
0000c0 7e 19 68 bd c2 a2 60 3d 8b f2 79 bd 1f 7a 68 39
       -0.056664936 0.054842718 -0.061022323 0.00022170738
0000d0 ae 9a 0e 3e 8c a1 1d 3d ec 0f 1e 3c c2 ce 88 bd
       0.13926193 0.03848414 0.009647351 -0.06680061
0000e0 ed 9e ff bd be 05 95 bc 70 c1 ec 3d 03 42 ac 3d
       -0.124814846 -0.018191215 0.11560333 0.08411028
0000f0 98 7b 30 bd 33 a6 36 bd 5f c2 9a bc 5b 17 a1 bc
       -0.04308662 -0.044592094 -0.018891511 -0.019664457
000100 47 dd 1d bd 1f de 90 bc 23 28 3b bd c4 f0 a8 3d
       -0.038541105 -0.01768404 -0.045692574 0.082490474
000110 68 c8 bb bb fd 7c 58 bc 6c ce 82 bb 59 5a 8b bd
       -0.0057306774 -0.013213393 -0.0039918926 -0.06804342
000120 c6 9c 6b 3d f2 6c d1 bd 3a 05 58 bc 05 8f 9d bc
       0.057522558 -0.10225858 -0.01318484 -0.019233236
000130 15 16 30 3c 34 1b 81 bd 96 61 65 bd 2e fb 98 3d
       0.010747452 -0.06304017 -0.05600127 0.07469784
000140 03 05 97 bd 1a e8 37 bb e1 0e c6 bd ab 9d ca 3c
       -0.07374003 -0.0028061927 -0.09670807 0.024733385
000150 46 a2 cd bc 92 f5 01 3c 4c c9 8d bd 67 7a 1c 3d
       -0.025101792 0.007932084 -0.0692316 0.03820267
000160 ab c7 4f bd 4d 2d a9 bd 8b 04 2f bd 89 39 c7 bc
       -0.050727528 -0.082605936 -0.042728942 -0.024319427
000170 32 68 91 3d 69 e1 3b 3d bf 75 1b bd e7 3e d4 bc
       0.07099952 0.045869265 -0.03795409 -0.0259089
000180 79 63 3a bc 60 4d 41 3d 75 d0 8c 3d 79 b6 85 3d
       -0.011376255 0.04719293 0.068756975 0.065289445
000190 39 ad b4 bd 59 9b 8a 3c f0 ab ac 3d 51 37 c4 3d
       -0.08822102 0.016919779 0.08431232 0.09580863
0001a0 39 c8 35 3d f1 12 53 3c 1a 9c a5 3d 81 9f 4d 3b
       0.0443804 0.012882934 0.08086415 0.003137559
0001b0 8b 24 b2 bc ac 27 22 3d 12 3a 3d 3d a7 de a6 3b
       -0.02174594 0.039588615 0.04619796 0.00509246
0001c0 74 24 70 3c 58 e2 75 3d c4 7d 92 3d c1 00 91 3c
       0.014657129 0.06003031 0.07152894 0.017700555
0001d0 c7 6a 65 3d 17 04 10 3c f4 fc e0 3c 11 9a 6f bc
       0.056010034 0.008790038 0.027464367 -0.014624135
0001e0 f7 0b 8a 3d b1 96 ae bf 8e b2 e0 bb 84 de 90 3e
       0.06740563 -1.3639737 -0.006857223 0.28294766
0001f0 8e 12 35 40 7c 60 6b 3e 62 e8 bf be a5 8d fc 3d
       2.8292575 0.22986025 -0.37481982 0.12331704
000200 3a 0a df bf b9 40 b6 bf cd 25 b7 be 60 95 26 3f
       -1.7424996 -1.4238502 -0.35771027 0.6507168
000210 be 06 d9 3e 70 5e f1 bd 67 dd 9e 3d e9 a2 b4 3e
       0.42387956 -0.11785591 0.07757073 0.3528054
000220 1d 80 bc be 23 c9 80 3e a6 fb 95 3c ef f4 b2 be
       -0.36816493 0.25153455 0.018308472 -0.34952495
000230 76 fe 47 bf 0b 40 c2 be 58 c6 bf be 6d 8b 73 bf
       -0.7812265 -0.37939486 -0.37456012 -0.9513462
000240 a0 c0 a1 3e 7b 67 21 bf 41 8d bc bd 20 b1 90 3e
       0.31592274 -0.63048524 -0.092066295 0.28260136
000250 71 3d 22 bf 04 d1 a3 be 9b 45 04 3e f9 22 0d 3f
       -0.63375 -0.31995404 0.12917177 0.5513149
000260 e3 43 91 be 0f a4 b9 3e ae 89 23 3f 88 04 e3 be
       -0.28372106 0.3625798 0.6388196 -0.44339395
000270 2c c5 95 be 32 d4 df bd 3d c9 a8 3e f4 44 fb bd
       -0.29251993 -0.10929145 0.32966033 -0.12269011
000280 c7 da 37 be e0 b5 ff be 28 2a 03 be d9 7d 50 3d
       -0.1795455 -0.49943447 -0.1280905 0.050901268
000290 a7 51 94 bf 9a 1a f7 be 56 4f 3c c0 31 cc ae be
       -1.1587418 -0.48262483 -2.9423423 -0.3414016
0002a0 ee fd 40 3f 8a 09 f0 be 2e ac 7b be 37 34 8b bf
       0.75387466 -0.46882278 -0.245774 -1.087531
0002b0 95 db 03 3f 49 5e 78 bf b5 54 a3 3e b0 21 ed be
       0.5150693 -0.9701887 0.31900564 -0.46314764
0002c0 97 14 35 bf 3d 2c 88 bf 82 42 c2 3c 51 25 03 3e
       -0.7073454 -1.06385 0.023713354 0.12807204
0002d0 80 0e 3a be 32 37 39 ba a4 ab e9 bd 8e 0b 5d be
       -0.18169594 -0.00070654147 -0.11409691 -0.21586439
0002e0 25 71 44 bc 9a e0 8d bd b5 d9 a8 be 27 d1 07 be
       -0.011989866 -0.06927605 -0.32978597 -0.13263379
0002f0 df 6d 8a 3c 3e 3b 81 3e ee 63 ea 3c 57 1c 6d bc
       0.016898094 0.2524051 0.028612103 -0.014472089
000300 d3 35 5f be 81 a4 82 bc e0 57 c4 3d 67 ac fb bd
       -0.21797876 -0.015947582 0.09587073 -0.122887425
000310 ff 37 36 be ff 08 c9 3d 39 7d 4c 3d 30 b7 f8 bd
       -0.17794798 0.09816169 0.04992411 -0.12144315
000320 f3 9c 97 3d ed c9 60 bd ab 8a 28 3d 5c 17 2b 3e
       0.074029826 -0.05488007 0.04114787 0.1670813
000330 86 12 fb 3d dc dc 66 be 16 3a e3 bd 9c 3c 8f 3d
       0.122593924 -0.22545189 -0.110950634 0.06993982
000340 f6 70 ae be 43 ff c0 3d 04 cb 8a be 2d 8e 22 3d
       -0.34070557 0.09423687 -0.27108014 0.03968637
000350 4a 18 dc bd 59 75 9d 3e e2 0c 08 3d 54 8b ab 3d
       -0.1074682 0.30753592 0.03321541 0.08376184
000360 b7 e8 43 bd 4c 0c d2 3d 8d be c3 bd fe d8 33 3e
       -0.047829356 0.10256252 -0.09557829 0.17563245
000370 b4 57 b1 bd b4 bf c8 3d 13 2a 1a be 83 a6 61 3d
       -0.08659306 0.098021895 -0.15055113 0.05509044
000380 37 8c 0c be 25 ba 79 be e0 09 0b 3e 83 1e 6a be
       -0.13725363 -0.24387415 0.13577986 -0.22863202
000390 96 a8 fc bd 0c 9c 38 3d 54 cd 47 be f5 75 0d 3e
       -0.12336843 0.045070693 -0.1951192 0.13814528
0003a0 a7 49 c4 3d 16 0e f8 3d ce a9 df 3d 96 5b ca 3c
       0.095843606 0.12112062 0.109210595 0.024701875
0003b0 68 73 94 bd 0c 27 d9 3d 8c 4a ea bc 21 a9 3f 3e
       -0.072485745 0.10603151 -0.0286 0.18716861
0003c0 10 b7 39 bd d8 90 57 3d 7e fb b9 bd b6 88 a9 3c
       -0.045340598 0.05262837 -0.090811715 0.020695072
0003d0 08 00 50 bd e7 fe 30 bb bf 98 ec 3c 61 35 5d 3d
       -0.05078128 -0.0027007402 0.028881429 0.054005984
0003e0 7f 4f 75 3d 6b 5a 1c bb c2 d5 0d bc 9e d9 ba 3c
       0.059890267 -0.0023857604 -0.008656921 0.022808846
0003f0 84 38 b4 bd 0f 70 a8 bd 0e cf 51 bd b5 c3 25 be
       -0.08799842 -0.082244985 -0.051222853 -0.16187938

encoder.2.bias f4 [30]
000000 bf e4 10 be 2c 3a c9 bd 64 dc d0 bd 01 cf 44 be
       -0.1414976 -0.098255485 -0.10198286 -0.1921959
000010 ac ee 86 bc 06 b1 d6 3d d8 57 5d 3d 48 6d bd 3c
       -0.01647123 0.10482983 0.054038852 0.023123398
000020 de 2b b2 3d 1b 7e 6e bd 0c ac 05 be 01 ed 87 bd
       0.08699773 -0.058225732 -0.13053912 -0.06637002
000030 5f ae 2e be 5e c9 8d bd ef 67 9d 3d d0 7e e6 3a
       -0.17058705 -0.06923173 0.076858394 0.00175854
000040 57 7b 0c be 56 ec a6 bd 63 95 7d 3c 35 40 eb bc
       -0.13718925 -0.08150546 0.015477511 -0.02871714
000050 4a 86 ff 3d 49 4a 93 bd a9 0f 05 3c d4 b0 a3 bd
       0.124767855 -0.07191903 0.008121409 -0.07992712
000060 1a bb cf bd 6a c0 92 3d 45 79 8e 3d 7c 74 14 3e
       -0.10143109 0.07165606 0.06956724 0.1449756
000070 a4 0b cf bc 9e b9 98 bd
       -0.025274105 -0.07457279

encoder.4.weight f4 [10, 30]
000000 32 a8 27 3a 3e b6 aa bc 3f 5a 8d 3e 9f 66 a0 3d
       0.00063956075 -0.020838853 0.27607915 0.078320734
000010 de 66 2c 3d 64 71 ec 3c fd c4 c5 bd 83 fe 6c bb
       0.04209029 0.028862663 -0.09656713 -0.0036162443
000020 45 b0 45 be 65 5c ee 3c 9e f6 a1 3d e9 9d 3e bd
       -0.19305523 0.029096792 0.079083666 -0.046537314
000030 e9 45 83 3c ae 9d 52 bd a4 7e 66 bc 12 3a 01 3d
       0.016024547 -0.051419906 -0.014068279 0.03154952
000040 4a 82 a2 3c 49 ab c9 3d 98 74 05 3e fb 70 ee bd
       0.019837517 0.09847123 0.13032758 -0.11642643
000050 f8 d7 2c bd 32 05 06 3e 25 ac 12 3e 93 71 08 3d
       -0.04219815 0.1308792 0.1432348 0.033311438
000060 b6 89 1b 3e 75 81 e5 3c 16 4b 29 3a dd 7d 9f 3d
       0.15189251 0.028015831 0.0006458027 0.077876784
000070 0f 37 e8 bc 68 2c dd bd c3 15 f0 3b 08 16 ca 3a
       -0.028346566 -0.107994854 0.007326813 0.0015417943
000080 0e 9a 17 3a 23 ed 2e 3a 92 b2 84 bb ff b5 25 bb
       0.0005783149 0.00066729094 -0.0040496076 -0.002528548
000090 90 46 f0 3a 14 ba 0a 3c 68 48 7c 36 b9 1c 12 bb
       0.0018331576 0.008467216 3.7593072e-06 -0.0022294952
0000a0 3e 18 47 3b 04 97 89 bb e6 ab 10 3b 7a 11 02 bb
       0.003037944 -0.0041989107 0.0022075116 -0.0019846843
0000b0 af f0 53 bb e1 52 94 bb 43 d5 b8 3b 23 af 06 bb
       -0.0032339504 -0.0045264815 0.005640657 -0.0020551167
0000c0 d0 ab 85 ba 70 7c 01 ba 5e 53 79 39 23 f4 e0 39
       -0.0010198299 -0.0004939502 0.00023777547 0.00042906505
0000d0 60 3b fc 37 26 8d 23 bb aa d0 aa 38 ca fa 42 3a
       3.006839e-05 -0.0024955957 8.1450984e-05 0.0007437883
0000e0 5e 84 1e 3b 62 c7 1a 39 d9 b6 b9 3b 58 2e 3e bb
       0.0024187784 0.0001476086 0.005667549 -0.0029019322
0000f0 c6 15 4c bb 27 02 94 3b e6 07 fd 38 16 b9 d1 b8
       -0.0031140908 0.004516858 0.00012065451 -0.000100003715
000100 27 6a 46 bb 57 ff 97 39 33 34 d5 ba 18 72 bf bb
       -0.0030275674 0.00028991207 -0.0016266167 -0.0058424585
000110 fc e6 43 36 d9 85 87 ba 16 5a 01 bb f8 c4 88 35
       2.9191715e-06 -0.0010339572 -0.0019737533 1.0190115e-06
000120 8c 4b c2 ba 24 07 19 3a da c2 5d ba f7 77 04 3a
       -0.001482354 0.0005837551 -0.0008459516 0.00050532765
000130 13 a5 19 3b c6 5c f0 b9 58 f0 c4 ba 52 db ed 39
       0.002344434 -0.0004584549 -0.0015025241 0.0004536757
000140 b7 1f 07 b9 53 2b c6 b9 87 32 31 3b 94 01 64 bb
       -0.00012886418 -0.00037797782 0.0027038173 -0.003479098
000150 10 2b 48 ba 60 5e c5 3a dc d8 f0 38 2c ed 25 3a
       -0.00076358113 0.0015058033 0.00011484485 0.0006329592
000160 52 04 1f bb 92 60 43 3a 35 62 b7 3d f4 f7 92 ba
       -0.002426405 0.000745305 0.089542784 -0.0011212812
000170 70 16 48 bc b9 41 c0 bd a5 92 fa bb 63 48 f3 bd
       -0.012212381 -0.093875356 -0.007646876 -0.11879041
000180 71 1e 7b 3d 12 7b 80 bb 87 0a c1 bc 09 2d a5 3d
       0.061308328 -0.003920921 -0.02356459 0.080652304
000190 9b 4a 89 bd 0b f5 30 bd cc d6 11 be c9 39 93 bc
       -0.06703683 -0.04320244 -0.14242095 -0.01797189
0001a0 e5 f4 76 bc 7b 7a 52 3d 20 63 de bd 96 09 83 be
       -0.015073036 0.051386338 -0.1085875 -0.2559325
0001b0 8f a2 65 bc 66 c6 0c 3e 47 d5 6a 3e c1 c0 26 3e
       -0.014015808 0.13747558 0.22932921 0.16284467
0001c0 10 ab 01 bc 69 95 4b bd d8 03 63 3e f2 18 04 3e
       -0.00791432 -0.049703036 0.22169435 0.12900141
0001d0 5d ce 63 bc 90 27 50 bc cb 78 61 bd 59 c7 50 3e
       -0.013904181 -0.012704745 -0.055046838 0.20388545
0001e0 4d 2c ef 3d 25 7e 33 be 6d cb 21 3d 1e 6d 86 bd
       0.116783716 -0.17528589 0.039500643 -0.06563781
0001f0 1d 9c 0a be a8 f9 ec 3d 2f d0 8c 3e e2 b5 83 be
       -0.13536115 0.11571056 0.2750258 -0.25724703
000200 2f f2 39 be ee 38 66 3e d2 c7 ca 3d 09 e0 6f bc
       -0.18158792 0.22482654 0.09901394 -0.0146408165
000210 bc 16 7a be 0a 11 94 bb de c6 5e 3d 1e 65 5f be
       -0.24422735 -0.004518633 0.054388873 -0.21815917
000220 05 15 9b 3d af 0e d6 3d a7 34 15 3e 2f 42 f5 3d
       0.075723685 0.104520194 0.14570867 0.11975514
000230 30 2f 4f 3c 96 55 3c be 56 b9 64 be 41 d6 80 3d
       0.012645528 -0.18392023 -0.22336325 0.06290866
000240 9d 42 9c 3d 15 9e 9d 3e 6c e3 bd 3d 17 e2 78 3d
       0.07629893 0.3078467 0.09271893 0.06076249
000250 ef b2 a3 bd 55 6f 5f be a5 b3 5a bc 71 aa 4b 3b
       -0.07993113 -0.21819814 -0.013348495 0.0031076933
000260 37 4f 49 ba 28 aa 4e 3a 79 e1 f2 3a 5c 0f 7d 3b
       -0.00076793454 0.00078836316 0.0018530331 0.0038613891
000270 d4 7c 28 bb 22 5a 62 bc 78 13 86 ba 73 32 9c b9
       -0.002570917 -0.013815435 -0.0010229191 -0.00029792226
000280 0a e4 d1 ba 7c ff ef 3b 3c c0 8b bb 5d b6 41 3b
       -0.0016013396 0.0073241573 -0.0042648595 0.002955816
000290 91 14 27 3c a9 98 c9 3b 85 8f 66 bb c1 41 2c 3b
       0.0101977745 0.0061522317 -0.003518076 0.002628431
0002a0 dc ac 93 3a 97 28 18 bb a2 77 b2 3a c2 13 3e 39
       0.0011266726 -0.0023217553 0.0013615976 0.00018127172
0002b0 fc 04 6c ba c1 80 e9 ba f3 7b e6 b9 97 33 35 3b
       -0.0009003428 -0.0017814861 -0.00043961368 0.0027649158
0002c0 86 ab 30 bc 9d 07 81 3a 2f cb 07 bc ed 9a 7a 3b
       -0.010783082 0.0009844188 -0.008288189 0.0038239316
0002d0 f0 14 b8 bd 9a a4 12 3d 33 fc 03 be c1 21 d7 3d
       -0.089883685 0.035801508 -0.12889175 0.10504485
0002e0 a5 ce 90 bd 42 a6 74 3e d6 8e 23 3e 4f 9d fa 3d
       -0.07070664 0.23891547 0.15972456 0.122370355
0002f0 20 21 6a bc ab 14 20 3d ee 07 16 be 5c 20 bc bd
       -0.014290124 0.03908221 -0.14651462 -0.091858596
000300 0f 94 e3 bd de c0 30 be e0 b0 7b 3d 52 fa 16 3e
       -0.11112224 -0.17261073 0.061447978 0.14743927
000310 a8 c1 82 3d 7d 98 78 bd ae 94 9b 3d 73 57 6c bd
       0.06384593 -0.0606923 0.07596718 -0.057700586
000320 e8 0f c0 3d bc 68 67 bc 29 61 b5 3d 4a c8 5b 3d
       0.09378034 -0.014124092 0.088564225 0.053657807
000330 e6 e6 35 3c d7 b3 ac 3d db 7d 0e 3e cb 58 e8 3d
       0.011102414 0.08432739 0.13915198 0.11345061
000340 12 1c 89 bb 6d 6d bf 3d da b8 f6 bc 93 3d c1 3c
       -0.0041842544 0.09347043 -0.030117441 0.023588931
000350 4d 68 8d be 7b eb 3a 3e e1 fb 1a bc b8 a3 15 3d
       -0.27618638 0.18253891 -0.009459467 0.036533087
000360 d8 c1 21 3e fd 41 a9 bc 40 54 51 3d 1e b0 98 3c
       0.15796602 -0.020661348 0.051105738 0.018638667
000370 dc 5e 81 bc c1 a5 9f 3d 5d 0d f6 3d f1 28 06 be
       -0.015792303 0.07795287 0.120142676 -0.13101555
000380 37 cb 2d 3c 57 40 8b bc 99 77 07 3e 21 ad 1b 3e
       0.010607532 -0.016998453 0.13229217 0.15202762
000390 9e a3 84 bd 58 88 a7 bd 1e e6 04 be 0b fd 93 3d
       -0.0647652 -0.081803024 -0.12978408 0.072259985
0003a0 18 d3 b5 3d b9 bb 99 3d 70 95 fd bd f4 e9 c3 bd
       0.088781536 0.075065084 -0.123820186 -0.095661074
0003b0 78 ef 91 bc 8b 4e 29 bd 66 07 a5 3d 89 f0 96 bb
       -0.017814383 -0.04133467 0.08058052 -0.0046063107
0003c0 65 72 d5 3b 6c b4 9c bc a2 c0 ba 3d dc d0 1a be
       0.006513881 -0.019129 0.09118773 -0.15118736
0003d0 ea 4f d3 bc 6e a9 a1 bd 2b 5e 5f bc 49 45 4c bd
       -0.025794942 -0.07893644 -0.013633291 -0.049870763
0003e0 0a 15 dc bd 5b 0d ea 3c 2c bc 01 3d 42 6f a0 bd
       -0.107462004 0.028570822 0.031673595 -0.07833721
0003f0 3d 7c b1 bd 30 70 81 3d 2a 24 1d 3d fd a2 95 bd
       -0.08666275 0.06320226 0.038364567 -0.07306478

encoder.4.bias f4 [10]
000000 f1 46 0d be 8d 88 bd 39 4e 4e 06 ba 53 70 f3 3c
       -0.13796593 0.00036150627 -0.00051233626 0.029716646
000010 32 1a 0b 3d fb c9 ab 39 71 a1 01 be e5 c1 1d be
       0.03396053 0.0003276615 -0.12659241 -0.15405996
000020 f3 c5 04 3e 26 be bb bd
       0.12966137 -0.09167127

encoder.6.weight f4 [1, 10]
000000 25 e0 2d bd 24 b9 97 39 eb f4 b3 b8 99 50 1f bd
       -0.04245009 0.00028938905 -8.581005e-05 -0.038895223
000010 10 fe 2e bc 2d e6 af b8 c3 8f 0e 3d 88 ba 6d bd
       -0.01068069 -8.387524e-05 0.03480507 -0.05803922
000020 e8 2d 2a 3d 18 5c 0a 3d
       0.041547686 0.033779234

decoder.0.weight f4 [10, 1]
000000 1d ba 2e c0 40 f4 52 c0 e8 5e 2f 40 b6 eb 43 40
       -2.7301095 -3.2961578 2.7401676 3.0612617
000010 f4 d4 3a c0 e5 c7 16 c0 5a a5 59 40 a9 46 52 40
       -2.9192476 -2.3559506 3.4007173 3.2855628
000020 7c 2b 36 c0 21 45 44 40
       -2.846404 3.0667193

decoder.0.bias f4 [10]
000000 06 4a a3 3b 7e 23 2a 3f e0 01 52 3f 78 0b bb 3e
       0.0049831895 0.66460407 0.8203411 0.36532187
000010 29 b9 30 3e 5b 6f 3c 3f 6f 0f 19 bf 70 5e 01 3d
       0.17258133 0.73607415 -0.59789175 0.031584203
000020 3e fc 6b be eb bd 24 be
       -0.23045442 -0.16088073

decoder.2.weight f4 [30, 10]
000000 6c 40 3b 40 26 cd 82 3d c7 71 cf be 48 34 47 bf
       2.925807 0.06386785 -0.40516493 -0.7781415
000010 a3 20 8f 3f 3e 6b 2d bd 1a 05 e2 be 1d f1 3e c0
       1.1181835 -0.042338602 -0.44144517 -2.9834664
000020 8b 35 8c 3f d7 17 5b bf 55 7c f1 bf 0a 56 c0 be
       1.095384 -0.8558325 -1.8866068 -0.37565643
000030 c8 c6 71 be 4a 0b ff 3e db 94 b2 bf 4e 03 19 3d
       -0.23610985 0.498133 -1.3951677 0.037356667
000040 ee df e9 3d a8 af c1 3f 89 18 2d be a1 44 de 3f
       0.11419664 1.5131731 -0.1690389 1.7364694
000050 18 36 26 c0 9e e4 60 be 49 ff 7e 3e 2d 31 9d 3e
       -2.5970516 -0.2196221 0.24902071 0.3070158
000060 b4 12 3d bf 2d fd 15 bd 1a 35 b4 3e 59 8f e2 3f
       -0.73856664 -0.0366184 0.35196763 1.7699996
000070 76 b3 45 bf a0 cf 70 3f 8f 90 ea 3f ac d0 bb bc
       -0.7722696 0.9406681 1.8325366 -0.022926651
000080 19 52 4b bd a4 38 d5 be 21 37 5d 3f 8c 46 86 3e
       -0.04963884 -0.41644776 0.86412245 0.26225698
000090 a8 7e f9 be 32 ed bf bf 4e 6e e6 3e 68 b8 94 bf
       -0.48729444 -1.4994261 0.4500603 -1.1618776
0000a0 7b d4 e7 3f a0 42 ff 3e 89 54 eb bd e5 be b4 be
       1.8111719 0.49855518 -0.11490733 -0.3530189
0000b0 de 8f 9a 3f 85 8b 36 3e 8f 09 96 be 4c 5f 99 bf
       1.2075155 0.1782666 -0.29304168 -1.1982207
0000c0 63 3a 1e 3f 40 27 c0 bf 6f 79 03 c0 9a df ea bd
       0.6180784 -1.5011978 -2.0542867 -0.1146843
0000d0 f4 91 7d be f9 cf 17 3e ab 39 b4 bf e0 e1 c8 bd
       -0.24762708 0.14825429 -1.4080099 -0.09808707
0000e0 f2 f7 46 3e d6 f2 a5 3f 51 4e 89 be ce 81 a8 3f
       0.19430521 1.2964733 -0.26817563 1.3164613
0000f0 0e 62 ff bf 12 3b a8 be 15 42 9b 3e b3 75 99 3e
       -1.9951799 -0.32857567 0.30323854 0.2997261
000100 a4 50 1e bf 78 62 0f be 69 7f f6 3e 4b 5c ae 3f
       -0.618418 -0.14002407 0.4814408 1.3621916
000110 59 26 08 bf 79 37 96 3f a6 36 f2 bf 1d 41 8d be
       -0.53183514 1.1735679 -1.8922927 -0.2758874
000120 47 2f a6 bc 31 c6 f4 3e e7 d9 a2 bf 59 33 b0 be
       -0.020286215 0.47807458 -1.2722749 -0.34414175
000130 85 18 12 3f 16 af ba 3f 0d 1b 9e be f4 72 cc 3f
       0.57068664 1.4584682 -0.30880013 1.5972581
000140 84 9a d4 3f 0d 84 ec 3e 8b 67 b7 3d e4 da 5b 3d
       1.6609654 0.46194497 0.08955296 0.053675547
000150 74 cd f9 3f 0a af fd 3e da c8 cf be d6 35 af bf
       1.9515824 0.49547607 -0.40582925 -1.3688304
000160 4e 6c 2f 3f 2d 8c fc bf 26 61 02 c0 03 7a 21 be
       0.68524635 -1.9730278 -2.0371795 -0.157692
000170 53 91 05 3e 81 f5 fa 3e aa 36 76 bf 59 16 a3 be
       0.13043718 0.4901543 -0.9617716 -0.31852987
000180 38 71 06 3e 07 b1 cf 3f cf d5 e8 be 7e db 41 3f
       0.13129127 1.62259 -0.45475623 0.75725543
000190 f6 25 29 c0 78 ed 93 be e9 c8 a6 3d fc 45 de 3e
       -2.642942 -0.28892112 0.08143789 0.4341277
0001a0 74 d1 70 bf c9 cc 4f bd 50 7e 76 3e cf 4d e4 3f
       -0.940696 -0.050732408 0.24071622 1.7836245
0001b0 90 22 46 bf 05 79 70 3f de 3c 4a c0 28 41 32 be
       -0.7739649 0.9393466 -3.159965 -0.17407668
0001c0 a4 d7 ed 3c 52 13 14 3f d8 01 73 bf cd 26 8f 3d
       0.02903349 0.5784198 -0.9492469 0.069898225
0001d0 57 a9 09 3f e8 ae 0b 40 1e 80 25 bf 9a b4 8e 3f
       0.5377402 2.1825504 -0.64648616 1.1148865
0001e0 76 90 36 c0 92 2a aa 3c ed 72 77 3e 50 ec 00 3f
       -2.8525672 0.020772252 0.24164934 0.50360584
0001f0 bf 19 35 bf 83 29 7b be 1d a2 39 3e 2e c8 04 40
       -0.7074241 -0.24527554 0.18128248 2.074718
000200 1f 20 00 bf 08 67 97 3f c9 5e ce 3f f3 e0 26 3f
       -0.5004901 1.1828318 1.6122676 0.65186995
000210 70 23 41 3d 8f 76 4f 3d b3 7b 1b 40 0b 09 97 3e
       0.047152936 0.050650176 2.429425 0.29499087
000220 e0 97 43 bf 05 b9 8f bf 1b 69 1f 3f 1b 18 25 c0
       -0.7640362 -1.1228338 0.62269753 -2.5795963
000230 a9 21 c2 3f ca 57 a9 3d d6 e8 68 be 54 10 b1 be
       1.5166522 0.082686976 -0.2274507 -0.3458277
000240 a9 2c 8a 3f 6f bf 1d 3e d4 11 a8 be 44 49 b7 bf
       1.0794879 0.15405057 -0.32826102 -1.4319234
000250 81 b3 09 3f 43 4d 9e bf f8 33 7b 3f db 28 4c 3f
       0.53789526 -1.2367328 0.98126173 0.7974984
000260 e6 b3 c4 3a d1 b9 e3 bd 09 a5 26 40 97 b4 0f 3e
       0.0015007227 -0.11119426 2.603823 0.14033733
000270 8e 5d 2b bf 6c c9 48 bf 3c 72 44 bd 39 5d 1f c0
       -0.6693963 -0.78432345 -0.047960505 -2.4900649
000280 fa 59 fc 3f 23 57 5b bc 97 12 ab be 4b 42 91 be
       1.9714959 -0.013387474 -0.3341262 -0.2837089
000290 50 31 8b 3f eb 10 d3 3c 6d d9 85 be 92 53 e7 bf
       1.0874424 0.025764903 -0.26142445 -1.8072379
0002a0 9e 32 13 3f 11 3d 99 bf 1c c6 62 3f 4e 9a d0 3e
       0.5749911 -1.1971761 0.8858354 0.40742725
0002b0 db 51 62 3e 2f 74 88 3d dd 8d d2 3f 1b ae c9 3e
       0.22101538 0.06662785 1.6449543 0.39390644
0002c0 ad 69 31 bf c1 c6 5b bf d2 41 ff 3e 59 1f cd bf
       -0.69301873 -0.8585015 0.49854904 -1.6025192
0002d0 50 3d fe 3f 8b ee f3 3e 0e 64 a2 be 14 90 2f be
       1.9862461 0.4764293 -0.3171696 -0.17144805
0002e0 1c 9b 9d 3f 8c 17 da 3b 8c 08 dc be 25 59 8a bf
       1.2312961 0.006655639 -0.4297527 -1.0808455
0002f0 3b ef c4 3e bc 3c 89 bf 1b 9d 76 bf f3 69 36 3f
       0.38463768 -1.072166 -0.96333474 0.71255416
000300 5f ca 44 3f a5 d2 04 3f 91 e4 15 3e a7 77 69 3f
       0.76871294 0.5188392 0.14637972 0.911982
000310 ba 16 cb be 48 00 89 3f 1e 98 48 bf 16 c2 9c be
       -0.39665776 1.0703211 -0.7835711 -0.30616826
000320 03 fb 0a 40 d7 91 d6 3e 4a 9c d9 3b 81 51 a3 be
       2.1715705 0.41908142 0.0066409456 -0.3189812
000330 64 c9 5f 3f d3 ca 87 bd a9 b1 32 be 6b 38 c5 bf
       0.8741667 -0.066304825 -0.17450584 -1.5407842
000340 43 03 1f 3f d6 3c 85 bf d2 c7 f4 bf 33 06 4f bc
       0.6211435 -1.0409191 -1.912348 -0.012635755
000350 9a c4 a4 bd 42 40 55 3e 16 59 81 bf 15 3a 32 3e
       -0.08045311 0.20825294 -1.0105312 0.17404969
000360 98 ba 71 3e d6 81 ad 3f 52 8a 04 bf 32 4c 8a 3f
       0.23606336 1.3555248 -0.5177356 1.0804503
000370 b3 3d e1 3f 87 b4 bb 3e f0 78 a8 3e b6 6f 7c 3d
       1.7596954 0.3666117 0.32904768 0.061629973
000380 73 1b 0f 40 51 15 16 bd aa fd 63 bf 9b f7 9c bf
       2.2360504 -0.036641423 -0.89058936 -1.2263063
000390 5a 72 74 3e 62 84 2b c0 1f c4 e0 3f bc 91 98 3e
       0.23871747 -2.679955 1.7559851 0.29798687
0003a0 21 f5 08 3e 11 58 25 bd 2b 21 ea 3f 3f 5b e8 3e
       0.1337476 -0.04036719 1.8291372 0.45382115
0003b0 2c d4 06 bf 9d 81 bb bf 10 46 ce 3e 56 a2 f1 bf
       -0.526675 -1.464893 0.40287828 -1.8877666
0003c0 37 d2 21 c0 a8 35 29 be 1c 4e 05 3e 34 39 13 3f
       -2.5284555 -0.16524374 0.13018078 0.5750916
0003d0 d1 47 6e bf 6f 36 a8 bd 27 2e 22 3e 8b 64 cf 3f
       -0.93078333 -0.082135074 0.15837918 1.6202558
0003e0 bf 98 b6 be 94 9d 98 3f 35 7b e5 bf 02 e0 c8 be
       -0.3566341 1.1923089 -1.7928225 -0.39233404
0003f0 ec 59 a4 be fe 19 d9 3e 04 f3 eb bf c6 a0 10 be
       -0.32099855 0.42402643 -1.8433537 -0.1412383

decoder.2.bias f4 [30]
000000 2c cc 76 bd a8 55 b7 be 05 ac 1b be 08 2a a4 bc
       -0.060253307 -0.35807538 -0.15202339 -0.020039573
000010 f7 cf 95 3e d5 b8 b1 bd 10 1a 48 3e 7d 39 f1 bb
       0.29260227 -0.08677832 0.19541192 -0.0073615895
000020 87 4f aa 3e 06 9e 76 3d 6d 94 14 3e a8 09 6d 3e
       0.332638 0.060209297 0.14509745 0.23148215
000030 6f 30 0b 3d fa 1e 2f bd af 59 0d 3e c9 27 b0 3e
       0.033981737 -0.04275415 0.13803743 0.34405354
000040 38 c8 5c 3e 67 60 c0 3e 83 8d ed 3c 29 3e 6c 3f
       0.21560752 0.3757355 0.028998142 0.9228235
000050 77 04 92 bc eb be 22 be 61 e1 58 3d d0 ad a9 3e
       -0.017824395 -0.15893142 0.052949313 0.3314042
000060 15 84 f7 bc 57 58 bd be a9 72 54 3f 5d 7c de bd
       -0.030214349 -0.3698146 0.8298746 -0.10863564
000070 b5 60 7e be d4 68 c1 be
       -0.24841578 -0.3777529

decoder.4.weight f4 [60, 30]
000000 58 47 63 3f 9b 8b b5 3e 80 c2 1f bf 99 42 11 3e
       0.88780737 0.35458073 -0.6240616 0.14185561
000010 15 c2 1a be 51 66 07 3e ff 6d 29 bf c1 a1 ca bd
       -0.15113099 0.13222624 -0.66183466 -0.09894133
000020 e8 40 23 bf c5 a9 4b bf ed 94 86 bf ec 03 df be
       -0.63770914 -0.7955592 -1.0514199 -0.4355768
000030 1c 68 40 bf 5b 7a d3 be 1b 4a 43 3d a5 56 b4 bf
       -0.7515886 -0.41304287 0.047678094 -1.4088942
000040 98 05 2a 3f dd d7 9f bf fc b7 70 3d 3c 62 cd bf
       0.66414785 -1.2487751 0.05876921 -1.6045604
000050 b8 9b 96 3e b6 b3 64 be 66 1e f5 be 2a a8 14 bf
       0.2941568 -0.2233418 -0.47874755 -0.580691
000060 20 e1 27 bf e8 73 2a 3f ca ca d6 bf a7 fd d9 3e
       -0.6557789 0.6658311 -1.6780636 0.42576334
000070 62 fe 46 3e 07 2d 43 3f 5c a9 d9 3f e6 99 96 3e
       0.19432977 0.7624058 1.7004809 0.2941429
000080 a7 51 52 c0 10 4d b7 3f 90 d4 3b 3d 10 81 25 be
       -3.2862337 1.4320393 0.045857012 -0.16162515
000090 aa 4e db c0 bf c4 e2 3c eb 1c fb be a4 d4 9f c0
       -6.8533525 0.027681706 -0.490455 -4.994707
0000a0 3e c4 d5 c0 e4 61 93 c0 f5 07 80 c0 cd 8d fd be
       -6.6802053 -4.6056995 -4.0009713 -0.49522248
0000b0 4e a6 bf 3f fb c8 05 bf 5d 63 7a 40 60 a9 03 bf
       1.4972627 -0.52259797 3.9123147 -0.5143032
0000c0 8d 5c 7c 3f e0 0d 11 bf 9d 6f 1f 40 c2 18 dc bf
       0.9857872 -0.56661797 2.4911873 -1.7195055
0000d0 70 4e fa be 16 37 d4 be be 2e c4 c0 d0 81 20 3f
       -0.48887968 -0.41448277 -6.130706 0.6269808
0000e0 14 0d 48 bf 9f e4 e9 3f c1 17 d6 bd 03 91 09 3f
       -0.78144956 1.8272895 -0.104537494 0.53736895
0000f0 93 38 2e bf 53 57 e1 be 53 8d 25 3f 5a 0b e0 be
       -0.68055075 -0.44011936 0.6466877 -0.4375866
000100 47 ff a0 3e eb 4e 84 be f7 94 65 3f 3d 45 05 bd
       0.3144476 -0.2584146 0.8968043 -0.032536734
000110 10 80 a4 3e a8 93 11 3f 04 45 84 3f 65 ca 08 3f
       0.32128954 0.5686593 1.0333562 0.5343383
000120 87 48 61 3f ac 60 fa 3e 36 f9 8e be d1 d5 9c 3f
       0.8800129 0.4890188 -0.27924508 1.2252752
000130 87 3e e2 be c8 d3 a6 3f c8 50 80 be 93 68 d8 3f
       -0.4418833 1.303338 -0.2506163 1.6906914
000140 b5 d6 13 bf 63 69 b9 3e 6d 1d 18 3f db 48 d8 3e
       -0.5774949 0.36213216 0.594199 0.42243084
000150 0d 47 26 3f 6f 16 60 bf a1 c8 d6 3f 8f 18 e4 be
       0.64952165 -0.8753423 1.6779977 -0.44549987
000160 ba ad 08 bf 2d a6 70 bf 4d a1 3c bf 90 d4 23 be
       -0.53390086 -0.94003564 -0.73683625 -0.15999055
000170 e8 7c e6 3e d5 a9 f3 bd d2 63 48 3d 1d f5 1a be
       0.4501717 -0.11897627 0.04892332 -0.15132566
000180 2b d5 4c 3f e9 08 c6 bd aa a1 df 3e 7e a4 3f 3f
       0.8001277 -0.09669668 0.43678027 0.7486037
000190 e0 7d 66 3f 97 72 19 3f a6 04 90 3f de a9 00 3f
       0.9003582 0.59940475 1.1251419 0.50259197
0001a0 10 c6 2f be 04 b5 ae 3f 8a 4a 1f bf 62 87 b2 3f
       -0.17165399 1.3648992 -0.6222311 1.3947566
0001b0 c4 65 07 bc e4 71 c7 3f 1f ad ca be 80 1a b6 3e
       -0.008264009 1.5581632 -0.39585206 0.35567093
0001c0 9d 71 0d 3f 3d 47 16 3f dc 61 3c 3f 43 77 08 bf
       0.55251485 0.5870245 0.7358682 -0.5330698
0001d0 4f 4c e3 3f 76 da cb be b9 6b f9 be 57 0f 77 bf
       1.7757663 -0.3981511 -0.48714998 -0.9650778
0001e0 87 aa 40 3f 9d 4f 03 3e 49 d2 a6 be 0f c0 80 3e
       0.75260204 0.12823339 -0.3258231 0.2514653
0001f0 92 20 00 be 5a 57 2c 3e ee 5a 1a bf b4 09 9e 3d
       -0.12512425 0.16830197 -0.60295 0.077166945
000200 db 82 f1 be ef 91 f9 be 58 c6 64 bf ef f0 16 bf
       -0.47170147 -0.4874415 -0.8936515 -0.58961385
000210 e6 72 78 bf 57 ee cd be ad f6 e2 3e 27 4b b4 bf
       -0.9705032 -0.402209 0.44328824 -1.4085435
000220 5f 00 1f 3f 78 1a c4 bf 87 70 fe 3d c6 72 ba bf
       0.6210994 -1.5320578 0.12423807 -1.4566276
000230 5f 37 03 3f b7 0d d3 be 8c ce d2 be 12 35 0f bf
       0.51256365 -0.412214 -0.41173208 -0.55940354
000240 7e 42 f9 be e9 5c 46 3f eb a3 e8 bf ba dd ae 3e
       -0.48683542 0.7748552 -1.8175024 0.3415354
000250 fc a4 a7 3e 63 25 3d 3f 21 3f 09 3f 16 e1 b7 bd
       0.3274306 0.7388517 0.5361195 -0.089784786
000260 ad 52 39 c0 33 5c af 3f 38 8d 9c 3e 92 a1 6d be
       -2.8956711 1.3700012 0.3057649 -0.23206165
000270 74 0e 63 bf 8c 7c ac 3c 09 a4 a6 bd 36 1b 6b c0
       -0.8869393 0.021055482 -0.08136756 -3.6735358
000280 4e 4e 75 bf 25 c8 28 bf 01 bd ad bf 2f 8f 64 be
       -0.9582261 -0.65930396 -1.3573304 -0.22320245
000290 62 9f b2 3f 7a 2f db be 41 bc 50 40 a2 72 12 3d
       1.395489 -0.4280966 3.26149 0.035753854
0002a0 0e ee 2b 3f b5 01 a8 be 2a 32 12 40 ac 0c db bf
       0.6716012 -0.32813802 2.2843118 -1.7113242
0002b0 58 d3 98 be c6 1d 69 3d f4 ab 31 c0 cd c6 8c 3e
       -0.29848742 0.05691316 -2.7761202 0.27495423
0002c0 03 3e bc be b6 f0 cc 3f f6 18 97 be 0c 78 82 3d
       -0.3676606 1.6010959 -0.2951123 0.063705534
0002d0 66 a9 a0 bf c2 e1 7e be 23 6b 7b 3f f3 fe 00 bf
       -1.2551696 -0.24890807 0.9821035 -0.5038902
0002e0 64 f1 50 3e 99 e0 0b 3d 7c e8 99 3f 2e cb 47 be
       0.20404583 0.03414974 1.2024074 -0.195111
0002f0 fd c4 c1 3d 5b f5 81 3f 21 9b a7 3f 7c a0 a2 3f
       0.09461401 1.0153002 1.3094217 1.2705226
000300 33 48 05 40 68 76 c1 3e bf d8 d1 be 8b f5 ba 3e
       2.0825317 0.3778565 -0.40985677 0.3651546
000310 30 b5 8e bf 08 9b df 3d 1e 1e ca 3c 75 87 bb 3e
       -1.1149044 0.10918242 0.024672564 0.36626783
000320 89 2e 17 bf f5 d9 12 3f 26 d4 92 3e 46 48 50 3e
       -0.5905538 0.57363826 0.2867748 0.2034007
000330 04 01 63 3f d6 7c d7 be a2 24 c3 3e 38 74 47 bf
       0.88673425 -0.4208743 0.38113886 -0.7791171
000340 4a 28 f5 bd d4 7d ad be c4 e4 b2 be 2d 21 23 bf
       -0.11970575 -0.33885062 -0.3494016 -0.637225
000350 c0 f7 a9 bc e1 79 22 be 51 05 2b 3f 63 8b 22 bf
       -0.02074802 -0.15866806 0.6680499 -0.6349394
000360 f0 fa ab 3e 76 65 d3 be 26 65 c6 3f 72 a0 a0 3e
       0.33589888 -0.41288346 1.5499618 0.3137241
000370 7b 98 0c 3f ee 04 b4 3e 65 ea 4e 3f af 9d 60 3f
       0.54920167 0.3516001 0.8082641 0.87740606
000380 ed a8 33 3d b3 50 71 40 66 13 50 3d 7a 34 f5 3f
       0.043862272 3.7705505 0.05079975 1.915664
000390 4d 8e 28 3e 05 fd 91 3f db 4e fc bc 81 a5 34 3d
       0.16460533 1.140534 -0.03079932 0.04410315
0003a0 f8 93 bc 3f 55 8c b7 3f bc d5 93 3e 76 23 b2 bf
       1.4732656 1.4339701 0.28874004 -1.3917072
0003b0 07 57 9e 3f c1 ce a2 be 56 8e 63 bf 95 a9 61 c0
       1.2370309 -0.31798366 -0.8888906 -3.5259755
0003c0 a4 dc 00 c0 9e f2 b7 be 77 aa 84 3f f2 8c 0c be
       -2.0134668 -0.3592729 1.0364522 -0.13725641
0003d0 8e ae 1e 3e 16 74 4f be 3d 21 91 3f 93 39 93 be
       0.15496275 -0.20259127 1.1338269 -0.28754863
0003e0 a7 f3 03 3e b1 2c 8f 3f 43 ee 94 3f 14 45 84 3f
       0.12885915 1.1185514 1.1635212 1.0333581
0003f0 23 9a 01 40 90 0c ae 3e ce e0 89 bd 70 e7 07 3f
       2.0250328 0.3399396 -0.06732331 0.5308752

decoder.4.bias f4 [60]
000000 79 9e a0 bf 02 47 bd be be 63 91 3f ad 0c 90 3f
       -1.2548362 -0.36968237 1.1358564 1.1253868
000010 79 90 a5 bf 22 08 f9 bc a6 d8 32 3d b6 f8 70 3f
       -1.2934715 -0.030399386 0.043663643 0.941295
000020 a7 ef db 3d bf f4 97 3f 6a 7a c0 3e b8 29 03 3f
       0.107390694 1.1871566 0.37593395 0.5123553
000030 6c 88 a0 3f e6 5b 27 3e a2 64 ac bf 0b 99 ea 3d
       1.2541633 0.1634365 -1.3468211 0.11454972
000040 4b 52 97 bf 4f de b0 be 12 ea 4a be 0d 2c 89 bd
       -1.1821989 -0.34544608 -0.19815853 -0.06697855
000050 e1 b8 e0 be 06 11 b0 bf 90 00 a3 be 6d 81 9a 3f
       -0.4389105 -1.3755195 -0.31836367 1.2070748
000060 ac be 0b bf 30 5b bc be 16 28 aa 3f da c4 1e be
       -0.5458782 -0.3678832 1.3293483 -0.1550478
000070 bf fe 1d bf f4 ac 28 bf ec 5d 1c bf 15 05 ce be
       -0.61716837 -0.65888906 -0.61080813 -0.40238252
000080 58 62 8a 3f 50 63 8c be e8 84 44 be ff 63 a3 3f
       1.0811262 -0.2741952 -0.19191325 1.2764891
000090 b2 3f f8 be 00 a8 8a 3f 38 26 1e 3e c8 57 af 3f
       -0.48486096 1.083252 0.15444267 1.3698664
0000a0 17 5a cb 3d 12 ed a2 3f e6 04 f9 3e 1f 9c bf bb
       0.09929293 1.2728598 0.4863655 -0.0058474685
0000b0 5c 6b 9c 3e 1e c5 90 bf c0 ca 60 3f ed c7 9c be
       0.3055066 -1.1310155 0.8780937 -0.3062128
0000c0 ba a9 ac 3f 31 c2 80 3e ef 3a 6c be 23 9a 2b 3f
       1.3489296 0.25148156 -0.23069356 0.6703207
0000d0 8a 71 9e 3f 34 2d ea 3e fd e2 4e be 4f f0 90 3f
       1.2378399 0.45737612 -0.20203777 1.1323336
0000e0 a5 12 f5 3b 2e b2 e9 be d7 b9 3e bf 28 5b 8c bf
       0.0074790292 -0.45643753 -0.7450232 -1.0965319

decoder.6.weight f4 [41, 60]
000000 2e 91 80 bc e7 a3 71 3a 2d 24 e6 bb 0a 21 fd 3c
       -0.015694227 0.0009217844 -0.0070233555 0.030899543
000010 b9 0f 36 be 06 a0 41 bd cb 6d b3 3d 75 81 bc 3e
       -0.17779435 -0.04727175 0.08761176 0.36817518
000020 25 9f 7b 3d ad f0 e0 bd 03 32 22 3f 96 77 b8 bd
       0.06143107 -0.10983405 0.6335756 -0.09007184
000030 b6 75 00 3e ea e8 72 3c ef c6 fc bb ea 9a 9e be
       0.12544903 0.014826039 -0.0077141444 -0.30977565
000040 48 77 e3 3d 69 54 1c 3f be 50 b8 3d 86 8f 3c bd
       0.111067355 0.610663 0.08999775 -0.046035312
000050 01 e1 bc be bd 1f 8e bd 0c 80 3e 3d e9 42 b9 bc
       -0.36890414 -0.06939647 0.046508834 -0.022614913
000060 c8 f7 17 bd 06 00 07 3e 8c cb 6f 3d 3f 69 74 41
       -0.037101537 0.13183603 0.058543727 15.275695
000070 d3 80 62 c0 6a 99 e7 bd 57 82 c6 bc eb 95 d9 3e
       -3.5391128 -0.11308558 -0.024232073 0.4249719
000080 5c 34 6f 3d e0 35 86 3c 01 4e b5 bd e0 a5 1f 3e
       0.058399543 0.016383111 -0.08852769 0.1559062
000090 1a ad 59 c0 bc 93 8c 3d f4 70 a8 40 a8 87 ab bd
       -3.4011903 0.068641156 5.263788 -0.08375484
0000a0 bb 0f 0d bc 64 50 49 bd fa 70 c6 bd 8f 49 57 3e
       -0.0086097075 -0.049148932 -0.09689517 0.21024154
0000b0 8f 98 bf be f0 d8 8f 3d 5b b8 8e 3e fe bb 66 3e
       -0.3742108 0.070237994 0.27875027 0.22532651
0000c0 4d 29 b9 3c a5 fe 23 bd cb 3c 2b 3f 5e ad 04 be
       0.022602702 -0.04003777 0.6688964 -0.1295676
0000d0 89 04 54 3d 63 ae 62 40 0f 8a 9d 3b 62 36 b6 3c
       0.051762138 3.5418937 0.0048077176 0.022242729
0000e0 06 7b 9d bb 03 e8 80 bd ab 4b 76 be 83 91 b6 bd
       -0.0048059253 -0.06294253 -0.24052303 -0.08914473
0000f0 f7 23 b4 bd 5d 33 1b 3e 3e 5a 31 3d b6 ca 06 3e
       -0.08795922 0.15156312 0.043298952 0.13163266
000100 19 fe e5 bd fc 7a 5c 3e 5b dd 4e 3c e6 97 00 3d
       -0.11230106 0.2153129 0.012626017 0.03139486
000110 52 98 93 bc de 71 e6 3d 0d aa e4 3c 53 f7 1e bd
       -0.018016968 0.11252187 0.027913118 -0.038810086
000120 e4 a0 a3 3d 3b d6 66 bf 08 50 7e bd 8d 11 f7 be
       0.07989672 -0.9017064 -0.062088042 -0.48255578
000130 92 7a 0a bc 3e ff 9c 3c ae b2 1e ba 4d 54 4f 3d
       -0.008452075 0.019164678 -0.0006053847 0.050617505
000140 cb a3 33 bd 17 af b3 bd 76 92 f1 bd f2 88 fa 3d
       -0.043857377 -0.0877363 -0.11795513 0.122331515
000150 d0 5e 81 bd da 81 c1 3d 35 23 be 3b 7f 5e 79 3e
       -0.06316912 0.09448595 0.005802537 0.24352454
000160 cf 02 19 be 6f e9 85 3d b4 d4 e5 bd bc 68 6d 3b
       -0.14942478 0.065386645 -0.112222105 0.0036225757
000170 ff ea 0b 3e eb 70 e1 ba 18 b1 4a 3d f0 8b 3a bd
       0.13663863 -0.001719979 0.049485296 -0.04554361
000180 cf 34 55 be 78 22 c8 3d 70 b5 3e 3e 48 a6 6e bd
       -0.20820926 0.097721994 0.186239 -0.058264047
000190 28 94 a7 3d a0 5e 0f bc 41 80 95 3d 66 ac ef be
       0.081825554 -0.008750588 0.07299853 -0.46811217
0001a0 17 70 34 bd 66 e0 83 3d 1f f4 ab 3c 5e 73 27 3c
       -0.04405221 0.06439285 0.02099043 0.010220377
0001b0 b7 05 fc 3c 46 c5 79 3d 20 04 b9 3c ea 3d 1e 3d
       0.030764444 0.06097915 0.022584975 0.038633265
0001c0 58 59 15 bd a0 9b 96 3e c2 77 21 bf bb cf ba 3d
       -0.036462158 0.29415607 -0.6307336 0.09121653
0001d0 95 09 5a 3f 2c e9 61 bc 39 7a 03 3d b9 9e 17 3d
       0.8517087 -0.013788503 0.032098982 0.037016604
0001e0 ab 48 a3 bd fb bf 1f 3d 82 e0 ac 3d b3 16 ed bc
       -0.07972845 0.039001446 0.08441259 -0.028941488
0001f0 3f 62 a1 3d a1 2d f0 bc b6 fa a4 3d c2 a1 95 3d
       0.07880067 -0.029318633 0.08055632 0.073062435
000200 4a 7e db 3d a2 af 1b 3d 08 8e 96 bd 89 60 d7 3c
       0.10717447 0.038009293 -0.07351309 0.026291149
000210 5e 6f f8 bc ed 33 db bd c5 c7 bc 3d 60 36 a1 3f
       -0.030326542 -0.107032634 0.092177905 1.2594719
000220 66 20 cc bd 01 c4 92 bd 42 93 2e 3d 8e ea d2 3c
       -0.09967117 -0.07166291 0.042620905 0.02574661
000230 06 74 e9 3d 19 2e bf bd b5 ed 0c bd ba 4f a8 3c
       0.11399083 -0.09334964 -0.034406383 0.02054583
000240 29 dc ff bd 31 55 b1 3d 55 6e 32 bd 15 7a 74 3e
       -0.12493164 0.08658827 -0.043562252 0.23874696
000250 7f 79 11 be 4e 07 85 3c 94 0c ca bd 92 ae 03 3c
       -0.14206503 0.016238835 -0.0986568 0.008037226
000260 5e 0e 0e 3d 0d ae bc 3d e7 a2 68 3d 15 20 db bd
       0.03468167 0.09212885 0.05679598 -0.106994785
000270 af 8e 15 be 0b 8a fd bd 24 73 b1 bc cf b3 e8 3c
       -0.1460521 -0.12379845 -0.021661349 0.028406052
000280 54 09 3f 3d 01 7b 92 bd 81 96 bf bd 54 3e c5 3f
       0.046639755 -0.071523674 -0.09354878 1.5409646
000290 e8 1a 83 bc 90 1b e0 3d d0 3c 9c bb 95 ad 0a be
       -0.01600404 0.10942757 -0.0047679916 -0.13542779
0002a0 25 98 3e bc 1b 45 bc 3a 8f 0c ad bd 25 9d db 3d
       -0.011632954 0.0014363857 -0.08449661 0.10723332
0002b0 10 22 97 bd 55 9f fb 3d 0e 6a 9f be 4a d4 05 3c
       -0.07379544 0.122862495 -0.311356 0.008168289
0002c0 67 73 5f 3e 1a c2 d4 3c 4c 43 e9 bd d4 d5 cc bd
       0.21821366 0.025971461 -0.11389789 -0.10001722
0002d0 2d 13 4e 3c 10 53 9c 3e a2 a9 c2 bd 87 19 a7 3d
       0.012577814 0.30532122 -0.09505011 0.08159166
0002e0 2b 1a f1 bd f4 52 24 3e 0b 7e 9a 3e 0b 9f df bd
       -0.11772569 0.16047269 0.30174288 -0.10919007
0002f0 6b 07 34 3e 02 6d f7 3d aa 64 08 3d 1b 26 d9 3c
       0.17580955 0.120813385 0.033299126 0.026507428
000300 cc e0 47 3c 66 ef 6e bc 6d 57 95 bd 23 f6 a1 3d
       0.012199592 -0.014583444 -0.07292066 0.07908275
000310 d1 26 33 3d 1a 9d 11 3d 75 7a 78 3e 11 a1 f9 3c
       0.04373819 0.035550214 0.24265464 0.03047231
000320 53 7a 04 3d 30 dc 16 bd f6 d1 70 3e db db 04 be
       0.03234322 -0.03683108 0.23517594 -0.12974493
000330 bb dd b9 3e 6b 10 25 bd f3 40 b4 3d a3 98 38 bd
       0.3630198 -0.04029886 0.088014506 -0.04506744
000340 2b f4 82 3d c0 f0 b1 3e 43 d1 85 3d 52 6e 0a 3d
       0.063942276 0.3475399 0.06534054 0.033796616
000350 a3 68 ea 3d 5c b8 cb 3e 27 52 07 3d 3c 0a 61 bb
       0.11445739 0.39789093 0.03303733 -0.0034338376
000360 ec 73 81 bd b6 a8 ec 3c 79 a7 9e bd 0f 30 0f bd
       -0.063209385 0.028889041 -0.077467866 -0.03495794
000370 53 a5 cd 3d 53 5d b4 3d 46 57 dc bd 2c ed 0e 3d
       0.10041299 0.08806863 -0.107588336 0.034894153
000380 f8 48 09 3e 80 45 bb bd a7 53 d7 ba cd 61 49 3d
       0.13406742 -0.091441154 -0.0016428129 0.049165536
000390 ab 46 a0 bd 26 89 c6 3d c6 16 15 be 84 45 77 be
       -0.07825979 0.09694128 -0.14559469 -0.24147612
0003a0 a1 cf 21 3c 95 41 7a 3b 28 1d fd bf e7 15 0a 3d
       0.009876163 0.0038186063 -1.9774523 0.033712294
0003b0 4f 7e 92 3c e8 87 2c 3e 81 90 60 3d 8b 3a 49 3d
       0.017882494 0.16848719 0.05482531 0.049128097
0003c0 c5 f8 e2 bc c4 c0 56 bd 66 2e 62 3c e3 4d f4 3d
       -0.027706513 -0.05242993 0.013805008 0.11928918
0003d0 26 69 e1 bd d2 00 9d 3c 60 aa 6e 3d f9 f1 18 bd
       -0.110063836 0.01916543 0.05826795 -0.037340138
0003e0 dd 5a d0 3d fc aa a0 bd 81 e7 2e 3d b3 42 09 bc
       0.10173581 -0.07845113 0.042701248 -0.008377719
0003f0 03 5f 21 3c 52 1e a9 3b 27 13 21 3d 36 5e 73 bb
       0.009849313 0.005161085 0.039324906 -0.0037135012

decoder.6.bias f4 [41]
000000 8c 78 a0 bc a1 b8 e7 bb 43 74 8c bd 43 66 72 3d
       -0.019588731 -0.00707157 -0.06858113 0.059179556
000010 d8 e6 24 bc f4 46 b0 bd f3 3e e3 3c 90 b6 53 bd
       -0.010064803 -0.08607283 0.027739977 -0.051687777
000020 65 7f 1a 3e 0e bc 91 3f 68 18 86 bd c3 b3 fe 3d
       0.1508766 1.1385515 -0.06547624 0.124366306
000030 56 6d 81 3d b6 3a 24 3f 76 b6 f0 3e 9a 47 bf 3d
       0.06319682 0.64152086 0.47014207 0.09339829
000040 89 86 e7 3d 57 1b f4 3f ff 74 94 bd 2d 1d a1 3d
       0.113049574 1.9070843 -0.07248878 0.07866893
000050 32 c9 8d 3d 4a 5e c4 3e 5f 47 e0 bd 38 85 39 be
       0.069231406 0.38353187 -0.10951113 -0.18117225
000060 93 37 6d 3d ea 09 a5 bd 93 ae d9 bd 34 a3 01 3e
       0.057914328 -0.080585316 -0.106290005 0.12659913
000070 08 ad a6 3d 3c 72 b8 bc 1b 0e af bc ac 65 1c be
       0.08138472 -0.022515409 -0.02136903 -0.1527316
000080 cc d4 17 be a4 e1 c0 bd fd d4 c4 bc 0a f3 55 3d
       -0.1482727 -0.094180375 -0.024027342 0.052233733
000090 55 de 13 3e 09 11 82 bd ec 9b 15 bc 79 60 c2 bd
       0.14440282 -0.063509054 -0.009131413 -0.09491057
0000a0 ee ba ad bd
       -0.0848292

estim_net.0.weight f4 [10, 3]
000000 d3 db 8b be bc e3 11 bf d6 9a 79 be c9 fd 1b be
       -0.2731615 -0.5698812 -0.24375471 -0.1523353
000010 6f de 09 bf f6 4e e5 be 0e a0 f3 be b6 28 ef bd
       -0.5385503 -0.44786805 -0.4758305 -0.11677687
000020 d6 f4 67 bd cf 41 58 be 38 97 af 3e 3f 37 35 3a
       -0.056629978 -0.21118854 0.34295058 0.00069128344
000030 09 d4 d9 3e b4 3a dd be 15 0c a9 bd 20 c6 b6 bd
       0.42544582 -0.4320885 -0.082542576 -0.08924508
000040 34 61 b3 be 09 bb 5a be 82 3b 9c bc 3b 7d c9 be
       -0.35035098 -0.21360411 -0.019071344 -0.39353356
000050 a6 fe 63 3d d9 ae a3 be fb 17 b6 bd 84 0d 68 3e
       0.055662774 -0.31969336 -0.08891293 0.22661406
000060 21 88 11 bf e9 c0 83 3d aa f9 45 3e 0f 33 62 be
       -0.5684834 0.06433279 0.1933352 -0.2208979
000070 63 e3 8b 3e f2 db d8 3d
       0.2732192 0.10588826

estim_net.0.bias f4 [10]
000000 b8 36 02 3f 5e 80 0d bf 80 68 e3 3e 61 ef c6 be
       0.50864744 -0.55274 0.44415665 -0.38854507
000010 38 e6 c0 be 3d c0 10 3f f2 ab e6 be 19 7d d9 be
       -0.37675643 0.5654333 -0.4505306 -0.42478254
000020 24 f8 6c 3d 14 b9 01 3f
       0.057853833 0.5067303
