exam/DAGMM_best.pth (torch, 125493 bytes, 26 tensors)

phi f4 [4]
000000 ff 96 8a 31 00 00 80 3f 00 45 18 32 6a 9e 22 32
       4.033495e-09 1.0 8.863253e-09 9.46566e-09

mu f4 [4, 3]
000000 48 8f 01 40 29 6b d0 3f cb 7a 00 be d7 78 49 3f
       2.0243702 1.6282703 -0.12546842 0.7870001
000010 dd 81 4b 3f 3f 7f 1e 3f 63 c1 01 40 a8 b1 d0 3f
       0.7949503 0.6191291 2.0274284 1.6304216
000020 12 60 02 be 28 31 01 40 c7 ed cf 3f 3f e0 f9 bd
       -0.1273196 2.0186253 1.6244439 -0.12200975

cov f4 [4, 3, 3]
000000 31 74 1a 40 9b f4 d3 3f 7c 2a ba bf 9b f4 d3 3f
       2.4133418 1.6559023 -1.4544215 1.6559023
000010 1e 76 91 3f fb 7f 7f bf 7c 2a ba bf fb 7f 7f bf
       1.1364172 -0.9980466 -1.4544215 -0.9980466
000020 3a 6d 60 3f 87 2f 2c 3f 60 00 eb 3e 9f bb cf be
       0.87666667 0.6726002 0.45898724 -0.4057283
000030 60 00 eb 3e 29 9a a0 3e 2c da 8d be 9f bb cf be
       0.45898724 0.31367615 -0.27705514 -0.4057283
000040 2c da 8d be 69 cd 7a 3e 0e 61 1a 40 59 d7 d3 3f
       -0.27705514 0.2449242 2.4121737 1.6550094
000050 d2 12 ba bf 59 d7 d3 3f f9 5f 91 3f df 5b 7f bf
       -1.4536994 1.6550094 1.1357414 -0.9974956
000060 d2 12 ba bf df 5b 7f bf f2 4f 60 3f f0 71 1a 40
       -1.4536994 -0.9974956 0.87621987 2.4132042
000070 73 eb d3 3f 8f 27 ba bf 73 eb d3 3f b3 6b 91 3f
       1.6556228 -1.4543322 1.6556228 1.1360992
000080 a0 74 7f bf 8f 27 ba bf a0 74 7f bf 65 69 60 3f
       -0.9978733 -1.4543322 -0.9978733 0.8766082

encoder.0.weight f4 [120, 41]
000000 20 39 91 be 28 50 4a 3e b5 e1 1c 3e ec e1 e2 39
       -0.28363895 0.1975714 0.15320475 0.00043274404
000010 ae dd ca bd ff 06 93 bd 9d 8b 68 be 2e 09 39 be
       -0.09905563 -0.07179069 -0.22709508 -0.18069908
000020 87 46 12 3c b3 08 c1 3d eb bd 33 be 6b 32 32 be
       0.008927948 0.09425487 -0.17552917 -0.17402045
000030 41 07 5b bd f0 7f 36 3d db cd 5e be d1 71 87 3e
       -0.053473715 0.044555604 -0.21758215 0.26454023
000040 a8 df d1 3d 12 3a 64 be 84 51 fa 3d 45 8e ce 3d
       0.10247737 -0.22287777 0.12222579 0.100857295
000050 64 fb 6a be ac 32 9f 3d 24 ac 49 be d0 07 08 be
       -0.2294746 0.07773337 -0.19694573 -0.1328423
000060 b9 0b e4 bd ce 9a 9b be 48 6e 10 3e 39 98 1c 3c
       -0.111350484 -0.30391544 0.14104569 0.009557777
000070 8d dc 23 3e db d5 6f 3d 5b 3a 4c 3f 67 ab 22 be
       0.16002102 0.058553558 0.79776543 -0.15885697
000080 3e b8 5c bf a8 47 8a be 5b 2b 25 3f 47 2a a3 3d
       -0.8621863 -0.27007794 0.6451928 0.07967048
000090 90 2d 6c 3f 1c 95 a2 be 3b 9d 0d bd 21 b7 de 3d
       0.9225702 -0.31754386 -0.034573775 0.10874773
0000a0 d7 9d 5b 3e ad 77 0e 3f bc 93 c4 3c c4 c5 4f 3f
       0.2144693 0.5565136 0.023996226 0.8116114
0000b0 95 93 fd be a7 37 26 3c f4 23 ab be c8 d0 89 3e
       -0.4952666 0.0101451045 -0.33425868 0.269171
0000c0 f6 af ab 3e 0d 7f f4 bd 1a 4a b9 3e ce 5f be 3e
       0.33532685 -0.119382955 0.36189348 0.37182468
0000d0 66 e9 ab be 02 2c eb 3c e5 59 59 3e b3 6a 06 be
       -0.33576506 0.028707508 0.21225698 -0.1312664
0000e0 a6 0b 49 3e a3 78 99 3e f9 02 b5 3e f3 72 0b be
       0.1963335 0.2997485 0.3535383 -0.13618068
0000f0 ca b2 1e 3e 89 d8 66 3e 30 44 2d 3e 5e 2e b6 3d
       0.1549789 0.22543539 0.16920543 0.088955626
000100 16 10 8d 3e e3 a1 1b 3d f0 ee 91 3e 83 c3 fc 3e
       0.27551335 0.037996184 0.28502607 0.49367914
000110 60 f1 56 3e 22 d2 a9 3d 45 13 04 be 9d 04 b7 be
       0.20990515 0.08292033 -0.12897976 -0.35745707
000120 ad dc 15 3f 6f 29 f2 be bf c4 98 be bd 22 b5 3e
       0.5853985 -0.47297236 -0.29837605 0.35378066
000130 97 0d 12 3e 05 61 b1 be 04 51 c3 3c a4 81 5b 3e
       0.14262997 -0.34644333 0.023842342 0.21436173
000140 b1 e8 91 3e 28 61 39 3e 42 ac 7f be 81 a6 d0 be
       0.28497842 0.18103468 -0.24968055 -0.40752032
000150 cf f3 73 be ab 66 93 be 19 55 9a bd 85 af 9e ba
       -0.23823474 -0.28789267 -0.07535762 -0.0012106752
000160 a7 21 42 3e 5c b1 ce 3e ca 8d cb 3e 6e f4 5b be
       0.1895815 0.4036969 0.39756614 -0.21479961
000170 35 35 96 3e a4 ee aa 3e 54 30 06 be b8 5e b1 3e
       0.2933747 0.33385193 -0.13104373 0.34642577
000180 83 7b c7 3e c1 00 0f bf 8f a6 a3 3d 2f 1a 37 bd
       0.3896142 -0.55860525 0.07990753 -0.044702705
000190 01 4b 3f be 5a 11 d2 3d 7a 22 ea 3e 92 8b f0 3e
       -0.18680955 0.10257216 0.4572943 0.46981484
0001a0 1c 5e a3 3d 3a 61 27 3c b7 b7 46 3e 41 c2 43 3e
       0.07976934 0.010216052 0.19406019 0.1911707
0001b0 fa 62 28 3f 89 7f da 3e 4a 6a c9 be a6 09 8a be
       0.65776026 0.42675427 -0.39338905 -0.26960486
0001c0 fb 44 d6 be f0 5d 8d 3e 83 7e 41 3f ea db e5 3e
       -0.41849503 0.2761073 0.75583667 0.44894344
0001d0 ee e8 f4 be d9 13 a4 bd 9e c3 ce be ef 6e 8b 3d
       -0.4783396 -0.08011598 -0.4038362 0.06808268
0001e0 55 54 88 3e 3f 76 c0 3d fa 29 c1 bd 77 00 39 bc
       0.2662684 0.09397554 -0.094318345 -0.011291615
0001f0 8b ec 27 3e ee fc 93 be d8 56 df be 7d c0 e2 3d
       0.16398828 -0.28903908 -0.43620944 0.110718705
000200 33 61 e9 be 42 1f 83 3d 1f 04 1a bd a2 60 1f be
       -0.4558197 0.06402446 -0.037601586 -0.15564206
000210 a6 66 07 3e 6e d5 04 be 90 04 37 3e d0 26 dc bd
       0.13222751 -0.12972042 0.17872834 -0.107495904
000220 4b 2f 20 be ed 09 5a be 14 21 1f 3f 90 13 72 bf
       -0.15643041 -0.21292849 0.6215985 -0.945611
000230 a3 46 32 be 51 63 42 3e e9 c2 19 be 33 3b 51 3c
       -0.17409758 0.18983199 -0.15015759 0.012770462
000240 db 93 1d 3e e4 a0 43 be 78 94 ab be a5 b3 23 3e
       0.15388434 -0.19104344 -0.3351171 0.15986498
000250 2e 96 10 3e 69 17 85 3e 45 bf cb 3e eb 08 a9 bd
       0.14119789 0.25994423 0.39794365 -0.08253654
000260 39 d6 97 be c0 3e 09 be 6a c8 8b be 22 88 03 bf
       -0.29655626 -0.13402843 -0.2730134 -0.513796
000270 71 ca c5 be 33 01 3b 3f 7a 62 c7 3e e8 2b 6a 3e
       -0.38631013 0.73048705 0.3894232 0.22868311
000280 30 19 81 bd dd 54 a8 be c4 56 53 3e 74 68 ed bd
       -0.06303632 -0.32877246 0.20638567 -0.115921885
000290 ac 2f 70 be 95 cc 22 be 81 99 71 3e 35 81 6b 3e
       -0.23455685 -0.15898354 0.23593713 0.22998507
0002a0 92 91 11 3f 4f 12 98 3e e3 2c 9d 3e 26 20 b8 3e
       0.5686275 0.29701468 0.30698308 0.35962027
0002b0 9a 09 af 3e de 6b 05 3f 01 3d ac 3e 82 1e 32 3e
       0.34187013 0.5211772 0.33640292 0.1739445
0002c0 f2 2d a8 3d 7b e5 04 3e 9b 2d 94 3d fb 34 a8 be
       0.082118884 0.12978165 0.07235261 -0.3285292
0002d0 67 a4 4f be cf d4 82 3e 4f 01 b0 3c 1b 3a c7 3d
       -0.20277558 0.25552985 0.021484999 0.097278796
0002e0 8c 90 74 3d 3b 02 3e 3e 38 2c 85 3c e5 56 cf 3c
       0.059708163 0.18555538 0.016256437 0.02530999
0002f0 1e 41 ad 3d bf 62 53 3e ce d3 e2 3d ff 60 c5 3a
       0.08459686 0.20643137 0.11075555 0.0015058814
000300 0d 9e 69 bd f2 75 93 be 01 db 1e bf ce 69 2e 3f
       -0.057035495 -0.28800923 -0.62052923 0.68130195
000310 0b e3 b5 3d e4 25 b7 bc d9 3e 0f bf 00 67 af be
       0.08881196 -0.022356935 -0.5595527 -0.3425827
000320 c5 ff 80 bf 72 72 74 3e 5e a8 4c 3e 17 03 9c 3d
       -1.0078055 0.23871782 0.19986102 0.07617777
000330 d8 06 4f bb b7 df ce 3d 66 fb b9 3e 6b bc a7 3e
       -0.0031589773 0.10101264 0.36324614 0.3276094
000340 78 8e ad 3e 6f 19 ea ba b9 84 9d be ca 7c 60 bd
       0.33897758 -0.0017860363 -0.30765322 -0.054806508
000350 fc b0 86 be 91 dc bd be 73 c2 89 be b9 3d 22 be
       -0.26306903 -0.3708234 -0.26906165 -0.15843858
000360 5e 2e c1 be a6 28 3f 3e fe 41 7f 3d 82 c2 c4 3c
       -0.37730688 0.1866785 0.062318794 0.02401853
000370 48 7b 58 3e f3 81 88 3e df ef c8 be a3 0e 16 3c
       0.21140778 0.26661643 -0.39245507 0.009158763
000380 4f af 82 3d b1 00 87 be c9 48 a4 be 7c 7e cf bd
       0.06381094 -0.26367715 -0.3208678 -0.10131547
000390 f7 47 8a be db a9 7d bd 6e ca 8f bd 9c 23 55 bf
       -0.2700803 -0.061929565 -0.07021032 -0.8325746
0003a0 5f ef ce be 34 b5 11 3e f5 ea 83 3e c6 00 b1 3e
       -0.40417 0.1422928 0.25765195 0.34570903
0003b0 a1 bb 36 bf cf 44 95 be 53 b9 ac be 7a 61 f1 3e
       -0.7138005 -0.2915406 -0.3373514 0.4714468
0003c0 98 54 57 be b3 38 12 3e 32 bf c1 bd d6 48 4f be
       -0.21028364 0.14279442 -0.09460296 -0.20242628
0003d0 3b d7 81 be 3a 69 28 bf ba a7 7a 3d dc cc d4 be
       -0.2535952 -0.65785563 0.061195113 -0.41562545
0003e0 4a 19 41 be 05 a7 9f bd 3f c6 b6 3e 58 da 02 3f
       -0.18857303 -0.07795528 0.35698125 0.51114416
0003f0 b6 9f c3 3e ff 47 f5 3e 4f 3d 89 3e 2f 8a 18 be
       0.38207787 0.4790649 0.26804587 -0.14896463

encoder.0.bias f4 [120]
000000 02 ad aa 3e 06 ba 31 be 20 2b d8 be 6f bd 95 bc
       0.3333512 -0.17356119 -0.42220402 -0.018278806
000010 3f 98 7e be 82 08 89 3e 1f 6e f8 be 1e 88 b2 be
       -0.24862765 0.26764303 -0.48521516 -0.34869474
000020 aa 07 cc be 0f 60 96 bd a8 d0 ee be d2 8e 3f 3e
       -0.39849597 -0.073425405 -0.46643567 0.18706825
000030 a0 cc ee be 55 63 1c 3c 13 b3 70 be 59 39 ef 3d
       -0.4664049 0.009545167 -0.23505811 0.1168086
000040 f9 37 13 be e2 39 e1 be 0a 40 41 be 17 1a e2 be
       -0.1437682 -0.43989474 -0.18872085 -0.4416053
000050 9c 6a 68 3e 29 86 9e be 47 b4 6c 3e 8e a4 9e 3e
       0.22696918 -0.3096173 0.23115645 0.3098492
000060 28 a7 63 be 20 c5 0e 3e 1f d5 11 be dd 68 c5 be
       -0.22231734 0.13942385 -0.14241455 -0.38556567
000070 32 34 ad 3e 10 3e 5c be 4e a0 51 3c ce 6a 50 bd
       0.33828884 -0.2150805 0.012794567 -0.050883107
000080 4e f1 bc be 92 8b 63 3d 26 9f 29 bc a6 0d 42 3d
       -0.3690285 0.055553026 -0.010352885 0.047376297
000090 11 a3 e8 be 48 80 c2 3e 40 00 18 bf 66 9b ba be
       -0.4543691 0.37988496 -0.5937538 -0.36446685
0000a0 df 37 b5 3d e1 07 27 bf 79 57 c1 3e 2a 60 21 be
       0.08848547 -0.652464 0.3776205 -0.1575934
0000b0 94 ae fd 3d 76 15 9b 3d 13 b1 39 3b 2b 8b 49 3e
       0.12386814 0.07572453 0.0028334304 0.19681995
0000c0 2e 0d a4 be f0 c6 0a be 49 db d0 3d 75 99 6d 3e
       -0.32041305 -0.13552451 0.10198075 0.2320307
0000d0 b2 f9 74 3e 04 91 6d be f1 70 e8 be 25 56 a3 be
       0.23923376 -0.2319985 -0.45398667 -0.3190166
0000e0 81 b0 ce be c7 f9 04 3e 76 2d d2 3e 71 4f 04 3f
       -0.40369037 0.12985907 0.4105031 0.5168372
0000f0 2f 4e cd be f4 50 01 be f1 82 aa bd 02 79 63 3e
       -0.40098712 -0.12628537 -0.08325756 0.2221413
000100 24 eb b2 3e 0c bb 4d 3c f8 96 9b 3e 72 a9 3b be
       0.34945023 0.0125568025 0.30388618 -0.18326357
000110 56 b5 4d bf 33 60 d2 3c 83 9c 14 3d cf be 18 3f
       -0.8035482 0.025680637 0.036282074 0.5966615
000120 e3 90 42 3c 09 1b 92 3d f2 cb fa be bc 13 8f be
       0.011875364 0.07134063 -0.48983723 -0.27944744
000130 fd 3b c7 3e f1 b9 4c 3e 13 ae 3e be ff 08 b9 3d
       0.38912955 0.19992806 -0.18621092 0.09034919
000140 38 d7 66 3e 74 20 6d 3e c9 fe 6e be 4e e9 0d bf
       0.22543037 0.23156911 -0.2333938 -0.5543412
000150 25 10 7a 3d 47 71 e4 3c 27 45 6a 3e c1 f4 c1 be
       0.061050553 0.027886046 0.22877942 -0.37882045
000160 e4 3e bc 3e c2 41 52 be 4d ba db 3e e4 4a 25 3e
       0.36766732 -0.20532897 0.42915574 0.1614185
000170 f6 75 a7 3b e7 8e be be 7b a1 45 be 10 dd c0 bd
       0.0051104976 -0.372184 -0.19299881 -0.09417164
000180 54 bc c1 3e 3f 46 94 bd fa 00 43 3e 42 8b 60 3e
       0.37838995 -0.07239961 0.19043341 0.21928123
000190 4d 63 3b 3e 33 71 c0 3e c8 3a 52 3e 9c be 31 3e
       0.18299599 0.37586364 0.20530236 0.17357868
0001a0 9e 2a 35 be a4 10 16 bf 39 b4 a2 3e ec f1 3a 3e
       -0.17692038 -0.5861914 0.31778124 0.18256348
0001b0 f3 66 0d 3e a0 5b ab 3e f8 7b 1f be 61 ec 67 be
       0.13808803 0.33468342 -0.15574634 -0.22648765
0001c0 63 c1 a5 3e e7 76 a9 be 8b 98 a0 be ae 89 05 3f
       0.32374105 -0.33098528 -0.3136638 0.5216321
0001d0 b3 9a 74 be 03 97 da 3e d2 a4 89 3e b9 cf 95 be
       -0.23887138 0.42693338 0.2688356 -0.29260042

encoder.2.weight f4 [60, 120]
000000 73 3c 1b 3f b5 b5 3d 3d e6 48 fb be 82 1b 92 ba
       0.60639113 0.046315867 -0.49079055 -0.0011147114
000010 d4 06 6d be 03 c4 71 3e e8 4d 97 bf c4 75 db be
       -0.23147136 0.23609929 -1.182065 -0.42863286
000020 52 7a 3f bf 0f c9 37 be 9f 4d 96 bd d0 64 b1 3c
       -0.7479602 -0.17947792 -0.07339024 0.021654516
000030 be 6f b5 be 0e cb ee 3d 9b 73 2a be 73 ae 73 3e
       -0.35436815 0.11659823 -0.16645662 0.23797016
000040 7b 0c ec bb a4 95 0d bf 40 e1 0d be 1d ca 4e be
       -0.007203636 -0.5530646 -0.13855457 -0.20194288
000050 a1 98 c8 3d ea 88 31 3c 16 24 0b 3f 37 66 55 3e
       0.09794737 0.0108358655 0.5435194 0.20839773
000060 45 22 19 be b9 b8 08 3f 83 68 76 3e 22 c7 d6 be
       -0.14954479 0.53406864 0.24063306 -0.419488
000070 69 73 af 3e 9f ef 26 be 94 1c 7a bd bd 05 6d 3e
       0.34267738 -0.16302346 -0.06106241 0.2314672
000080 5d 9a d1 bf e3 1c 82 3e e0 c3 a3 3c 53 1d b3 be
       -1.6375233 0.25412664 0.019990861 -0.3498331
000090 39 a4 5b bc 2b 1f 79 3f e5 5f 95 be 25 7f 6c be
       -0.013405853 0.97313184 -0.29174724 -0.23095377
0000a0 3a 71 1b 3e 44 f9 12 3e dd 96 74 3e e5 88 2f be
       0.15179911 0.143529 0.23885675 -0.17142065
0000b0 6b 78 f1 3e d8 53 69 be 0f 41 9d bd 6d 76 99 3e
       0.47162184 -0.2278589 -0.076784246 0.29973164
0000c0 e1 58 30 be 91 81 75 be 6c 04 61 3e 87 ae 3a 3f
       -0.17221405 -0.23975207 0.21974343 0.7292256
0000d0 27 1e 97 3e f3 d5 14 bd 86 d7 99 be f1 10 41 be
       0.29515192 -0.03633685 -0.30047244 -0.18854119
0000e0 37 ce 8e be 27 30 01 3e 35 25 e0 3f 16 b4 c6 3d
       -0.27891704 0.12616025 1.7511355 0.097023174
0000f0 3f 9c 9c be da e5 35 bc 7b bb 99 bd 81 7f 1f 3f
       -0.30587956 -0.011102164 -0.07506462 0.6230393
000100 77 48 c8 3e c0 90 e5 39 f0 0c 80 bb 7a bc ce 3d
       0.39117786 0.0004378613 -0.0039077923 0.10094543
000110 0a 92 9f be 44 b9 1e 3d b2 83 db 3d 89 b4 6c 3e
       -0.31166106 0.0387509 0.10718478 0.23115744
000120 f3 51 f8 be 09 0d b5 3e 25 77 ce bd 70 08 69 be
       -0.48500022 0.35361508 -0.10081319 -0.22757125
000130 a6 8e ae 3e 45 18 3a 3d dd a3 04 bf 18 7a 7a 3e
       0.34093207 0.0454333 -0.51812536 0.24460638
000140 b1 f3 e4 3c ad db 43 3d 36 0b 49 bf bb b9 7a be
       0.027948232 0.04781692 -0.7853273 -0.24484913
000150 98 f0 bb 3e db ef 1c 3e 2a ec ac bd ad 65 c7 be
       0.36706996 0.15325873 -0.08443482 -0.3894476
000160 60 27 c8 3d 8c 60 0a bf 26 6a c9 3e 8f 43 43 3f
       0.09773135 -0.5405357 0.39338797 0.7627496
000170 d2 14 03 bc fe 52 83 bf 0c ad e7 3d 74 74 a0 3d
       -0.008000569 -1.0259702 0.11312303 0.07834712
000180 cd d9 4a 3d be 31 0c 3e ac ac 84 3e 09 01 85 3e
       0.049524117 0.1369085 0.25912988 0.25977352
000190 0e 0f fd 3d 6a 3b 68 3e 14 79 85 3e 97 83 b9 3e
       0.12356387 0.22678915 0.26068938 0.36233208
0001a0 15 a6 23 bf 97 11 c4 bc 1e 76 ab 3f 1b fd 14 3e
       -0.63925296 -0.023934169 1.3395422 0.14549677
0001b0 83 2b 85 3d 13 55 24 3e e4 49 44 be 6a f8 0f 3e
       0.0650244 0.16048078 -0.19168812 0.14059606
0001c0 e5 28 ae 3e 61 aa 40 bf ef 4a c1 be 21 70 2b 3e
       0.34015575 -0.7525998 -0.37752482 0.16741993
0001d0 33 33 25 bf e5 38 47 3e 1e 46 a0 3f 72 ca 52 bf
       -0.6453125 0.19455297 1.2521398 -0.8234016
0001e0 74 0d 43 3f 59 5a 93 3d d7 b4 59 bf 45 f7 9a 3e
       0.761924 0.07194967 -0.85041565 0.30266777
0001f0 73 89 8c bf e4 e2 20 3d c3 96 a8 bb fb f8 01 3d
       -1.0979446 0.03927888 -0.0051449253 0.031731587
000200 65 c9 6c bd a8 67 25 bf 88 e1 f2 3e 6e e4 89 be
       -0.057809252 -0.6461129 0.47437692 -0.2693209
000210 d7 c4 65 bf 48 68 c9 bd 62 53 87 3d 43 d0 c7 3d
       -0.8975348 -0.09834343 0.06607701 0.0975652
000220 b2 a2 1b 3e ba fe 41 3e 18 ef 5e 3e db db 3b 3e
       0.15198782 0.18944827 0.21770895 0.18345587
000230 27 19 02 3f 4f 19 eb bc 10 15 81 3b cc 64 b5 3e
       0.5081963 -0.028698592 0.0039392784 0.35428464
000240 93 cd 0d 3e ce 7b 85 be 66 47 30 3f a3 38 a3 bf
       0.13847952 -0.26071018 0.68858945 -1.2751659
000250 e2 05 0a 3f 71 d9 d1 be a4 25 c1 3d 2e 04 a1 3e
       0.53915226 -0.40986207 0.094310075 0.314485
000260 c8 34 eb bd 65 b3 a7 3e 82 17 9c 3d a5 f6 da be
       -0.114846766 0.32754055 0.07621671 -0.427663
000270 da ad c9 3e 6e 92 77 3d b0 15 98 be 62 d5 9d bf
       0.3939045 0.06044238 -0.29704046 -1.2330744
000280 32 c4 4e 3f c4 ed 0b be 10 90 8b 3f b5 bd 83 3d
       0.8076812 -0.13664919 1.0903339 0.06432668
000290 69 2e b0 be a5 8d c4 bd 79 f1 3f bf 01 66 0b 3e
       -0.34410408 -0.09597329 -0.74977833 0.1361313
0002a0 b8 ef a7 3a 8f f4 ff be a2 62 f0 3e ba 4a f2 be
       0.0012812531 -0.4999127 0.4695025 -0.47322637
0002b0 c3 3d 99 be dd 41 aa 3e 27 47 7a 3e 27 17 ab be
       -0.29929933 0.33253375 0.24441205 -0.334161
0002c0 50 1e c5 3e f2 e3 97 3e 31 6f 21 3f 72 8a 2b 3e
       0.3849969 0.29666096 0.6306029 0.16752031
0002d0 8a 29 7e 3e 37 ec 69 be bb b4 e6 be b3 c8 4a 3e
       0.24820533 -0.22844015 -0.4505976 0.19803123
0002e0 fa 19 8b 3f 85 78 73 bd af e5 27 3f 76 fb cd 3e
       1.0867302 -0.05944111 0.65584844 0.40230912
0002f0 cb a3 ae be cd e7 1c 3e 21 dc 1c bf ae a5 c8 3d
       -0.3410934 0.153228 -0.6127339 0.09797226
000300 d2 8c 30 be 36 c2 f9 be 42 d2 08 3f 91 ad 96 be
       -0.17241219 -0.48780984 0.5344583 -0.29429296
000310 1a 21 fa 3e a8 07 20 be 59 a3 c0 bf bb 3b bb 3e
       0.4885338 -0.1562792 -1.504985 0.36569008
000320 ac 30 2b be 1e eb c4 3e 25 1b 9c 3e a4 6d 84 3d
       -0.16717786 0.3846063 0.3048946 0.06466225
000330 71 73 fa be e2 90 50 be 81 a2 8c 3d 2b 27 32 be
       -0.489162 -0.20367768 0.06866933 -0.17397754
000340 f8 ee 33 be e9 ba 38 bf db 7b 26 be 68 89 65 3d
       -0.17571628 -0.721602 -0.16258185 0.056039244
000350 59 fa dc be 57 9c 7a be b2 77 09 be ce 3e f0 bd
       -0.4315975 -0.24473701 -0.13424566 -0.11730729
000360 74 fc 32 be 11 c4 3f 3f 6e b3 b0 3e ba e6 cb be
       -0.17479116 0.7490855 0.34511894 -0.39824468
000370 d6 a3 5b 3f 34 55 25 3e 27 f0 2e 3e fe 7d 27 3f
       0.8579687 0.16145784 0.17083798 0.65426624
000380 58 b5 37 3e 1b fd 76 be 57 a0 98 be 68 46 00 3f
       0.17940271 -0.2411999 -0.2980983 0.5010743
000390 56 b7 60 3c 86 db 95 3d 62 f3 2e be 58 52 5b 3e
       0.013715586 0.073172614 -0.1708503 0.2141813
0003a0 01 12 13 bc ba 50 dd bd 92 4d 47 3e 8e e4 d1 3d
       -0.00897646 -0.10806413 0.19463184 0.102486715
0003b0 a2 65 6c bf b5 79 cb bd 65 61 13 3e f1 06 00 be
       -0.9234258 -0.09935323 0.14392622 -0.12502648
0003c0 55 e0 9f 3f 09 21 8c be ee 39 97 bf 19 25 12 3f
       1.2490336 -0.27368954 -1.1814554 0.57087857
0003d0 18 4b 23 bf 2b 1d 0b 3f 4b d7 b4 be 5a d9 11 be
       -0.6378646 0.5434138 -0.35320505 -0.1424307
0003e0 52 e3 60 be 58 1b 5e bf b3 0b f7 bd df a5 7b bf
       -0.21961716 -0.86760473 -0.12062778 -0.98299974
0003f0 7e 67 b3 bf 99 23 47 3e 27 06 82 3e a0 4d 0f 3f
       -1.4015958 0.19447173 0.2539532 0.5597782

encoder.2.bias f4 [60]
000000 7a 42 e3 3e 4a 2c b1 3e bb 8b 3d 3f 39 f9 ff be
       0.44386655 0.34604102 0.74041337 -0.4999483
000010 d3 1a 36 3e 1a d1 7e be d4 64 31 be 9e ba 02 bd
       0.1778367 -0.24884453 -0.17323619 -0.031916253
000020 8c 8c ca 3e a7 6e 25 3e 3d fc 82 3e 9d 54 7f 3d
       0.39560354 0.16155492 0.25583068 0.062336553
000030 49 cc 9c be 4b 85 f9 3d 91 88 d9 be b9 46 08 bf
       -0.30624607 0.12183627 -0.42487004 -0.53232914
000040 d9 a2 a3 3e d1 cc 08 bf 8a a6 f7 3e 41 1a 35 be
       0.3196018 -0.53437525 0.48369247 -0.17685796
000050 b8 1f 83 be 1a 7c fc 3b 19 76 a4 3b ea 90 08 be
       -0.25610137 0.0077052237 0.005018961 -0.1333653
000060 c2 01 06 3f b7 e0 3d be 6c 2b e0 3e c9 dd 73 be
       0.5234643 -0.18542753 0.43783128 -0.23815073
000070 2b 70 03 bf 7d e1 18 3d 10 4f a2 be bb b0 0b 3e
       -0.5134303 0.037324417 -0.31700945 0.13641636
000080 54 34 9a bd 0d 55 00 be e7 ec df be 93 e7 e7 be
       -0.07529512 -0.12532444 -0.4373543 -0.45293865
000090 5e 21 e7 3d a8 f2 b5 be df 67 39 3e b3 27 15 bf
       0.11285661 -0.35536695 0.1810603 -0.582637
0000a0 0a 0a 91 3e bf d9 02 bf 8e 85 d4 bb c9 87 dd be
       0.28327972 -0.51113504 -0.0064856475 -0.43267658
0000b0 a7 74 b0 be ce ff 67 be f4 d5 64 bf 10 b9 ea ba
       -0.34464 -0.22656175 -0.89388967 -0.0017907936
0000c0 ec 5e 20 3e 56 52 a5 3d f8 fd 13 3f af ce 98 be
       0.1566121 0.08072345 0.578094 -0.29845187
0000d0 5e ae 3c 3e f4 db d7 be ca cf 62 3e 5a 77 6d be
       0.18425891 -0.42159998 0.22149578 -0.2319006
0000e0 93 ef 08 bf dd 59 c0 3e 05 fa 7e be 77 8d 12 3e
       -0.5349056 0.3756856 -0.24900062 0.14311777

encoder.4.weight f4 [30, 60]
000000 34 e4 c4 3f bb 25 c4 3e b9 fc 5c 3f e5 71 bc 3d
       1.5382142 0.38310036 0.86323124 0.09201411
000010 d2 f2 63 3e 1e 9d 94 bf 21 24 c3 be 0f e6 39 be
       0.22260597 -1.1610448 -0.38113502 -0.18154167
000020 41 6d e2 3e ca 53 24 be 69 c0 cb 3e 98 a1 b8 3e
       0.4422398 -0.16047588 0.39795235 0.36060786
000030 9a d3 a1 3d d8 d5 a0 be 96 b6 9f bf 2c ad c6 bf
       0.07901688 -0.3141315 -1.2477596 -1.5521598
000040 b1 ff 04 40 e4 bf 22 3d ed b3 fd 3c 01 00 e1 be
       2.0781062 0.039733782 0.030969584 -0.43945315
000050 93 cb 55 bb 4f 89 df bb 77 4e b1 bf c6 f3 f5 be
       -0.003262256 -0.0068217884 -1.385207 -0.48037547
000060 ad d4 20 be 6f f9 d8 be 6c 2d a5 bc ae c3 c9 be
       -0.1570613 -0.42377803 -0.02016326 -0.39407104
000070 63 64 97 be 4e 92 26 be 55 59 ac be 30 26 f0 bd
       -0.29568776 -0.16266748 -0.33661905 -0.11726034
000080 8e d5 6c be 0c be 96 3d 83 85 e2 bf d4 17 00 bf
       -0.2312834 0.07360467 -1.7696995 -0.5003636
000090 c7 c8 24 be 1a bb bc 3d 98 89 79 be 3a c3 91 be
       -0.16092215 0.09215374 -0.24368894 -0.2846926
0000a0 3a d4 03 3d 30 38 94 be 25 0a ef be 50 20 9c be
       0.032184817 -0.28949118 -0.46687427 -0.30493402
0000b0 e8 1d 92 be a9 ba 3d bf 8a 72 a4 be 5c 04 cd 3e
       -0.28538442 -0.74112946 -0.32118636 0.40042388
0000c0 52 ba 1d 3f b3 d2 e2 3d 7a 36 a3 be 64 ca 9c bf
       0.6161243 0.11075344 -0.318775 -1.2249265
0000d0 fb b5 83 3e d4 33 87 3e 2e 65 26 3f 89 ff a7 be
       0.25724778 0.2640673 0.6499814 -0.32812145
0000e0 ff 44 cf bf d5 83 38 3f 60 57 85 be d3 14 7f 3f
       -1.6192931 0.7207616 -0.26043224 0.9964115
0000f0 03 95 b4 be 0d 60 57 be 54 af bc 3c 49 3e bc be
       -0.35269937 -0.21032734 0.023032822 -0.3676627
000100 ed 7f d2 be 01 e0 81 3d e9 67 e6 3d d5 2d 80 3e
       -0.41113225 0.063415535 0.11250288 0.25034967
000110 5a b2 b5 bd cc a8 3c bd 25 d8 08 bf 03 b4 8e be
       -0.088719085 -0.046059415 -0.5345481 -0.27871713
000120 ce 27 1b be d4 c8 f1 3d 46 aa e1 3e ea 97 a1 3e
       -0.15151903 0.11805883 0.4407522 0.31561214
000130 f7 94 7f be f3 a9 03 3e 4e 4f 3b bf db ab ff 3d
       -0.2495917 0.12857799 -0.73167884 0.12483951
000140 08 ec 8e 3e de 42 e5 be 0c 87 7d 3e 3e a4 47 3e
       0.27914453 -0.44777578 0.24758548 0.19496247
000150 b6 1d 34 bf 94 88 12 3f 78 ee 0b be 9e 2b d1 3e
       -0.70357835 0.5723965 -0.13665187 0.4085359
000160 3a 55 30 3f b7 5a 4c 3e 5a 78 1c 3f 1e 33 9c 3e
       0.68880045 0.1995648 0.6112114 0.3050775
000170 a4 74 fe 3c 9c 0c 73 3d d1 83 d2 3e fa 9c 2b 3e
       0.031061478 0.059338197 0.41116193 0.167591
000180 da c6 f0 3d 6a fe 09 be ec 30 c3 3e 41 f9 92 3e
       0.11756678 -0.13475958 0.38123262 0.2870579
000190 97 98 8d be 8b 6f ef 3e 6b 3b 26 3e 38 f5 89 3e
       -0.2765548 0.46764788 0.16233604 0.269449
0001a0 8d e4 4b 3d be ff 8f 3d 20 e9 81 3e f1 d2 6a be
       0.04977851 0.07031201 0.25373173 -0.2293203
0001b0 77 d9 99 be e8 5b 99 3e dd 74 b9 be c8 a8 6f 3e
       -0.30048725 0.2995293 -0.36221972 0.23404229
0001c0 cd e6 ce be fa e3 04 bd 3d 7e 83 be 1d c5 a6 3d
       -0.40410462 -0.032443978 -0.2568225 0.08143065
0001d0 0a 39 b3 3e 9d 4e 43 be ba d9 c4 3e e2 b2 c7 be
       0.35004455 -0.19072957 0.38447362 -0.39003664
0001e0 5d c2 95 be 81 3a ec 3d 40 9a 65 bd b2 66 ad bd
       -0.2924985 0.11534596 -0.056055307 -0.08466853
0001f0 07 a4 0b 3f 67 a7 c1 3e b8 83 3e 3d d0 26 86 3d
       0.5454716 0.3782303 0.046512336 0.06550372
000200 00 31 21 3e 5a be 0c be 74 ea 0e be 16 46 7a bd
       0.15741348 -0.13744488 -0.13956624 -0.061101995
000210 b8 3f 8f 3d 62 0d b7 3c 02 25 ae 3e e6 4a 87 3e
       0.06994575 0.022345249 0.3401261 0.2642433
000220 7d 8c a0 be 3d b1 03 3d 7a 46 10 3e 96 8b e7 3d
       -0.31357184 0.03215145 0.14089385 0.11305921
000230 56 eb b2 3c 18 90 07 bc fa 0e 28 3d b7 0f 2d bd
       0.021840733 -0.008274101 0.041029908 -0.042251315
000240 52 c1 54 3e 96 c7 3b be 06 d2 ac 3d ce f8 f9 3e
       0.20776871 -0.18337855 0.08438496 0.48822635
000250 58 fe 86 be e9 49 0d 3f 0a f3 70 be 42 e4 b8 bd
       -0.26365924 0.551909 -0.23530212 -0.09027912
000260 69 c8 f6 3d 6b 27 84 bd 22 40 d1 3d 57 cc f5 bd
       0.12049944 -0.06452831 0.102173105 -0.12001865
000270 8a 1e 97 bd 98 9e 0f be 75 71 c0 3d 5f 30 c5 bd
       -0.07378872 -0.14025342 0.0939664 -0.09628367
000280 37 6c a7 3d 9e 21 c6 bd d2 80 d6 3c e9 f6 22 3d
       0.08174937 -0.09674381 0.026184473 0.039786253
000290 90 b3 2f 3e c9 91 45 3e 64 e7 93 be d6 ba fa 3d
       0.17158341 0.19293894 -0.28887475 0.122426674
0002a0 fb 8e 1c be cd 53 db be d1 aa 65 3e eb 80 a3 3d
       -0.15288918 -0.42837372 0.22428443 0.079835735
0002b0 be 36 21 be 72 37 a4 3d 3a 9e 8c bc 79 40 5b 3e
       -0.15743539 0.08018388 -0.017165292 0.21411313
0002c0 96 7c 9b 3e 49 a6 0c 3d 0a d7 c9 3d 07 81 bd 3d
       0.3036849 0.03433827 0.098554686 0.09253126
0002d0 f2 7a a7 3c 32 ca 59 3f bc 40 1d 3f 27 4f cb bf
       0.020444367 0.8507415 0.614269 -1.588353
0002e0 40 fc 59 3d f3 77 34 bd 0f 86 3f be e5 0e da 3e
       0.05321908 -0.044059705 -0.18703483 0.4258949
0002f0 96 f6 9e bd a2 54 8f 3f 04 5c ce be 44 92 63 bc
       -0.07761876 1.1197703 -0.40304577 -0.013889853
000300 3c f5 00 3f a1 41 a0 3e 80 b5 1a 3d fa df e6 bd
       0.503742 0.3130007 0.03777075 -0.11273189
000310 9a 53 26 3e 54 2d 01 bf f9 03 ae bd 01 e7 81 3e
       0.16242829 -0.5045979 -0.084968515 0.25371554
000320 3e b2 70 be 92 a2 4e be 23 9a 8d 3e c0 8a 1c 3e
       -0.23505494 -0.20179203 0.2765666 0.15287304
000330 e1 48 d4 3e fa 3b 8d 3e f4 c5 30 3f 75 b6 d3 be
       0.41461852 0.2758482 0.6905205 -0.4135014
000340 45 c7 48 3d 1f 5f 27 bf 9c cf 1f 3d e8 79 19 3e
       0.049018163 -0.6537952 0.03901635 0.1498791
000350 6f 23 9a 3e 30 86 cc 3d 32 e4 e0 3d ae a2 fc 3c
       0.3010516 0.09986532 0.10981025 0.03083929
000360 57 24 ab be 72 05 13 bf e8 29 8b 3f 36 6a 9a bd
       -0.33426163 -0.57430184 1.0872164 -0.075397894
000370 41 fa 12 3d 20 61 1d bd fc 40 ce 3e 5a 5a cf bc
       0.035883192 -0.038422704 0.40283954 -0.025311638
000380 cd d3 e8 3b dc 81 1d bd 33 83 8f be 2b 8b 38 be
       0.0071053267 -0.03845392 -0.28029785 -0.18021838
000390 d6 a0 f7 be 8c f4 b8 3e 8b d8 a1 3e 16 c0 18 3e
       -0.48364896 0.36124074 0.31610522 0.14917025
0003a0 9e 7e bf 3e d4 3a b3 be 51 9a 23 3d 48 b2 00 bf
       0.3740129 -0.3500582 0.03994209 -0.50272036
0003b0 c5 48 d4 bd 14 38 5a be a1 c3 96 bd 25 d5 79 3f
       -0.10365442 -0.21310455 -0.07361532 0.9759086
0003c0 ff c7 93 3e ec 3f cf 3f dc 3b a4 3f ce 41 bb bf
       0.28863522 1.6191382 1.2830768 -1.4629457
0003d0 87 1a 96 3f 12 97 9b be d1 a3 ac bd 26 75 c7 3c
       1.1726846 -0.30388695 -0.08429683 0.024347853
0003e0 80 6d 95 3e e8 08 b3 3e 65 4b 11 bd 7b b1 08 3e
       0.29185104 0.34967732 -0.035472292 0.13348953
0003f0 8d 90 a6 bc 0c 22 0d 3e 45 05 d9 be 89 4c bc be
       -0.020332599 0.13782519 -0.42386833 -0.36777142

encoder.4.bias f4 [30]
000000 45 41 7b 3e 15 1f 1e be dc 3c d5 3d 8b ed 52 3e
       0.24536617 -0.15441544 0.10411999 0.20598428
000010 27 1d 8d 3e 55 a7 14 3d 9d 3d 07 3e 6e 20 a5 bc
       0.27561304 0.036292393 0.13207097 -0.020157065
000020 d1 86 51 be 1f 79 f2 3e 67 72 1b 3d c2 1b 17 3f
       -0.20461585 0.47358033 0.0379509 0.5902673
000030 f6 24 fa 3e 0b cc 2d 3e 94 8e 25 be d5 8d 0c 3e
       0.48856324 0.16972367 -0.1616767 0.1372598
000040 65 3f 19 ba 7e 00 a9 be ee ef 31 3e 06 7e 96 be
       -0.00058459333 -0.33008188 0.17376682 -0.29393023
000050 9b da a4 be cf 1b 68 3e 24 42 ac bd 06 cf b2 be
       -0.32198033 0.22666858 -0.08411053 -0.3492357
000060 e2 d4 1e 3e df 5c b9 3e f3 e5 9b be 41 5d 02 bf
       0.15510896 0.36203668 -0.30448875 -0.50923544
000070 4f 61 9c 3d 19 4f 03 be
       0.07635748 -0.12823142

encoder.6.weight f4 [10, 30]
000000 c3 85 e4 be a8 92 35 3f ab 06 bf be a4 e3 31 be
       -0.44633302 0.70926905 -0.37309775 -0.17371994
000010 41 74 c1 3e 21 09 4a 3e 07 72 4c be 89 bd 4c bf
       0.37784007 0.19730045 -0.19965373 -0.7997671
000020 b1 97 ff 3e 35 a9 c1 bf 9d 4b d9 be 6a 75 05 3f
       0.4992042 -1.5129763 -0.424405 0.52132285
000030 c1 f2 07 bf a9 76 1f be d0 bd 4d 3e d2 5e 9b be
       -0.5310479 -0.15572609 0.20091939 -0.3034578
000040 2e c1 16 3e 92 7a f2 3e 5b 57 6a be d7 6a d4 3e
       0.1472213 0.4735914 -0.22884886 0.41487762
000050 2b 68 dc 3e f7 a1 7f bc 8a 53 8f be 91 3c a2 3e
       0.43048224 -0.01560258 -0.27993423 0.31686834
000060 21 93 58 bf 10 32 e1 be 1f d4 76 3f 69 0a e4 3e
       -0.845995 -0.43983507 0.9641742 0.44539192
000070 13 61 d5 bc 48 bf 31 3f bf 3b df 39 c9 b4 c6 bc
       -0.026047265 0.694325 0.0004257839 -0.024256127
000080 a5 82 08 3f d6 79 d0 3e 1d 67 b2 3f 93 06 9f 3d
       0.5332435 0.40717953 1.3937718 0.07764926
000090 94 a1 a1 bf 57 1a 5f 3e 25 21 62 be 8c 4c bd bf
       -1.2627435 0.21787392 -0.22082956 -1.4788985
0000a0 8e 89 01 bd d9 2e b4 3f 28 3e 4d be 8d 63 62 bc
       -0.031625323 1.4076797 -0.20043242 -0.01381768
0000b0 4d 37 34 3d 64 79 a9 3e a0 ef 18 3f c1 c9 01 3f
       0.04399805 0.33100426 0.5974064 0.5069848
0000c0 f0 fa 0c 3e 84 82 8e be 74 86 15 be b3 dd f6 3d
       0.137676 -0.2783395 -0.14602071 0.120540045
0000d0 8d b2 9a 38 82 29 f6 bd 18 f5 36 3d 78 96 ef 3e
       7.37655e-05 -0.12019636 0.044667333 0.46794486
0000e0 ba b3 e9 bd b3 63 75 be 58 aa 2b bd 3f 52 36 3f
       -0.11411233 -0.23963813 -0.0419105 0.7121925
0000f0 30 fe 2f be f5 e9 0b 3d 74 ab 58 be 42 d1 d6 bd
       -0.17186809 0.034158666 -0.21159154 -0.104891315
000100 77 30 a7 be 51 e2 6c 3e c6 7e 88 3e 91 da a8 bc
       -0.32654163 0.23133208 0.2665922 -0.020612033
000110 96 0f 7e 3d 3a 39 cd 3c 7d 70 66 3c 43 ca 48 be
       0.062026583 0.025051702 0.014064905 -0.19608407
000120 4a 75 b4 3d 35 1f f5 bd 47 0e 4c 3d 72 38 1a bb
       0.088114336 -0.11968843 0.049818303 -0.002353218
000130 2e a8 4b bf 0e 1b be 3a 8b 12 d5 3d 7a b7 ae 3d
       -0.79553497 0.0014503913 0.104039274 0.08531089
000140 b2 17 d1 bb bd 7c 91 3d 58 7b f1 be 7e a3 6d bb
       -0.0063809985 0.0710387 -0.47164416 -0.003626078
000150 76 f0 e8 3e 1b fb 96 be c9 ce 86 bd 8e 8b e9 bc
       0.45495957 -0.29488453 -0.0658241 -0.028508928
000160 22 5a b5 3c b8 af 23 bd 01 70 25 3f 19 53 95 bd
       0.022137705 -0.0399625 0.6462403 -0.0729124
000170 a5 5c 03 bf 7f bc d0 be 9f 72 30 3f 42 aa 10 bd
       -0.5131324 -0.4076881 0.689249 -0.03531862
000180 58 86 14 bf 5c b3 7f be fd a5 57 bf 51 fe 0a be
       -0.5801749 -0.24970764 -0.84237653 -0.13573577
000190 9f c5 91 3f 15 2e 9f 3f 73 bd 0a bc 65 ad d9 3e
       1.1388434 1.2435938 -0.00846802 0.42515102
0001a0 44 9c cf 3d 07 1d 6d be 5b 25 81 3e 94 03 ef 3d
       0.10137227 -0.23155604 0.25223812 0.11670604
0001b0 72 7f 03 bf 31 84 39 bf 89 09 6f bf 66 68 a1 be
       -0.5136634 -0.72467333 -0.93373924 -0.31524962
0001c0 9e a7 b1 3e 22 32 2b bf e5 a2 a4 3f e9 1c 1b 3e
       0.34698194 -0.6687337 1.2862211 0.15147747
0001d0 f6 73 c1 3e ee ba 89 be 24 9d 97 3e 31 03 64 be
       0.37783784 -0.2690043 0.29612076 -0.22266842
0001e0 01 88 a3 3f e3 e6 dd be e7 3f 01 3e b3 a6 d1 bd
       1.277588 -0.43340215 0.12622033 -0.102368735
0001f0 db 7e 23 3f 5e fe b9 be d7 e4 5c 3e 4e a0 6f 3e
       0.6386544 -0.3632688 0.2157167 0.23400995
000200 ac 5f d2 bf 39 c0 4c 3f 94 74 94 3f 13 f4 02 3f
       -1.6435447 0.7998081 1.1598077 0.5115368
000210 7a 76 c8 bd 41 d7 00 3f 7b 53 9e be 48 65 35 be
       -0.097882226 0.5032845 -0.30923066 -0.17714417
000220 07 58 2a 3e 26 dc 1c be ba db 58 bf 89 69 95 bf
       0.16635142 -0.15318355 -0.84710276 -1.1672832
000230 55 b4 4b bf f2 77 b9 be fa 19 2e bd fb 44 70 bf
       -0.7957204 -0.36224324 -0.042505242 -0.93855256
000240 4a 3e 73 3f 62 a0 12 3f d7 58 93 bd 7d d1 bd be
       0.9501692 0.57275975 -0.07194679 -0.3707389
000250 d0 34 88 3f b6 7d be be ef ea 38 3e 24 3a 9d 3d
       1.0641117 -0.37205285 0.1805837 0.07677105
000260 19 f8 f8 3c 0a a7 9a 3e ac e4 c5 3d 36 53 b7 3d
       0.03039174 0.30205566 0.09662756 0.08951418
000270 0f df 32 3e 3f 40 4f be a6 70 24 be 71 3f 92 bd
       0.17467903 -0.20239352 -0.16058597 -0.07141007
000280 ad 13 85 3e a7 d9 08 be c7 52 99 3e 36 95 36 3e
       0.25991574 -0.13364278 0.29945967 0.17830357
000290 ee 2d 81 3e b2 49 bb 3b f8 e3 5a be eb ed 43 3c
       0.25230354 0.0057155723 -0.21376026 0.0119585795
0002a0 2c fb 28 be 08 7d bc be c9 d1 4b be 1c f4 6a 3d
       -0.16502064 -0.3681414 -0.19904245 0.057361707
0002b0 af 19 af be 53 e8 8e be 80 65 97 3e e5 dc 87 be
       -0.34199283 -0.27911624 0.29569626 -0.26535717
0002c0 98 18 47 3e d0 d8 0b bf 92 97 15 3e 0f b3 4d bd
       0.19442976 -0.54627705 0.146086 -0.05021959
0002d0 74 86 df be 3e 39 80 3e 4e 1c df 3d af c0 f4 3e
       -0.43657267 0.25043672 0.108940706 0.47803256
0002e0 76 77 22 bf 55 36 e7 3d 64 fb cf 3e 2c 46 5d 3d
       -0.6346353 0.1128966 0.40621483 0.054022
0002f0 7d 64 50 3f 4c 57 7b be 4a b0 a7 bf 38 13 69 bf
       0.8140333 -0.2454502 -1.3100674 -0.9104495
000300 78 84 b1 bd 13 51 fc be 0b 5c 6f bd b3 77 52 3e
       -0.086678445 -0.49280605 -0.05843739 0.20553474
000310 73 e6 94 be cb b3 8d be 72 0c de 3e 7a 7f 5d 3f
       -0.2908207 -0.27676234 0.4336887 0.8652264
000320 7a 58 92 3f 6e e4 14 3e bd 67 c0 be 80 29 62 3f
       1.1433251 0.14540264 -0.37579146 0.88344574
000330 60 fa 7c bf 2e a8 e0 be 2e 1b 16 bd 43 aa ba 3e
       -0.9881954 -0.4387831 -0.036647014 0.36458024
000340 8a d5 ec be aa 6b 36 3e 67 35 10 be 26 4d be 3d
       -0.46256667 0.17814508 -0.14082871 0.09292059
000350 47 82 14 bf de fc 0e bf 04 38 bb bf b9 1d a5 3e
       -0.5801129 -0.55854595 -1.462647 0.3224924
000360 75 f3 6d 3f 11 3b 00 be 96 e1 38 3e 51 6b 9f 3f
       0.9294961 -0.12522532 0.18054804 1.2454625
000370 c5 a0 22 3d 5d 92 93 bf a3 e2 b5 3e ce 16 e2 3d
       0.039704103 -1.1529042 0.35524473 0.11039506
000380 8c a1 1c 3e 88 f2 36 be 39 86 87 bf 18 c5 ee be
       0.15296 -0.17865956 -1.0587837 -0.46634746
000390 9f b6 46 3c 77 91 bb 3c d2 71 0d 3e 5e 16 a6 be
       0.012128501 0.022896511 0.1381295 -0.3243894
0003a0 57 24 9d bc d2 35 ce 3d 1c 15 4c 3e 14 c3 b6 be
       -0.019182367 0.10068859 0.19929928 -0.35695708
0003b0 d9 df 64 3e 86 44 b0 3d fb 54 28 be 82 d7 3e bf
       0.22351016 0.0860682 -0.16438667 -0.7454759
0003c0 ee ce 86 3d 57 6e a1 bd a3 4c e6 3c 6a 1c 46 bd
       0.065824375 -0.07882374 0.028112715 -0.04836694
0003d0 4a 21 61 bd 42 9b 5e 3e 06 ee 1d 3e 99 57 64 be
       -0.054963388 0.21738914 0.1542283 -0.22299041
0003e0 a6 bb 0f 3e bb 0b 66 bd a3 75 d7 3d 2a bf 2b be
       0.14036426 -0.05616353 0.10520484 -0.16772142
0003f0 3d c5 10 3e da 57 0a bd 73 d7 11 bd 60 51 2a bd
       0.1413774 -0.033775188 -0.03560586 -0.04158151

encoder.6.bias f4 [10]
000000 1a 5e ca be 9c 69 82 3d 24 8f 48 3e 96 5c eb 3d
       -0.3952492 0.063678 0.19585854 0.11492269
000010 89 24 f2 3e 98 1c e3 3e 64 82 d8 bd ac f8 f3 3c
       0.472935 0.44357753 -0.10571745 0.029781662
000020 97 b5 a2 3e 8b 46 8b 3e
       0.31779167 0.27202258

encoder.8.weight f4 [1, 10]
000000 14 fa a9 be 1e 89 61 bf f7 51 ff 3e 0d d6 a9 3e
       -0.33198607 -0.8809985 0.49867222 0.3317112
000010 a2 27 51 3e a9 2d f5 3e 56 44 d7 be a4 fa 31 3f
       0.20425275 0.47886398 -0.42044324 0.6952307
000020 c4 66 6c 3e b3 06 c1 3e
       0.23086077 0.37700424

decoder.0.weight f4 [10, 1]
000000 e2 c5 9d 3f 74 92 bb bd 88 c4 26 bf 92 fa 04 40
       1.2326014 -0.09158793 -0.6514363 2.0777936
000010 dc f2 e1 3f 1c d4 9e 3e fd f3 d6 3f 6f 69 85 be
       1.765224 0.31021202 1.6793209 -0.26057002
000020 c5 ea ae 3f 75 a2 c8 3f
       1.3665396 1.5674578

decoder.0.bias f4 [10]
000000 77 59 91 3f 47 5b 5d 3f 9c b8 0e bf ea 9b 88 3e
       1.1355428 0.86467403 -0.5575044 0.26681453
000010 38 f9 1c bf 52 99 2d bf a1 f1 1e bf 90 aa fb 3e
       -0.6131778 -0.67812073 -0.62087446 0.49153566
000020 b6 12 a0 3f 2f f9 c8 bd
       1.250571 -0.09813153

decoder.2.weight f4 [30, 10]
000000 ce be 56 bf df 56 f2 3d 6c ee 63 3f 10 56 fa be
       -0.83884895 0.118329756 0.8903568 -0.48893785
000010 6f 6f f3 3d 58 a4 4f 3e c2 08 62 3a c6 6d 86 3d
       0.11886489 0.20277536 0.0008622521 0.06563906
000020 ad f3 9a bf 0b be b2 bd 9d 74 86 3e a6 67 e5 be
       -1.2105614 -0.08727654 0.26260844 -0.4480564
000030 4c c5 87 be b6 b9 ce 3e e7 f5 19 bf 99 14 19 3f
       -0.26517713 0.4037606 -0.6014084 0.59797055
000040 bc 06 9b be 53 89 09 bf 84 96 e8 bd e6 61 5e bc
       -0.30278575 -0.53725165 -0.113568336 -0.0135731455
000050 97 69 19 bf c2 83 18 3e 06 d8 a4 3e 5a 55 0e bf
       -0.5992674 0.14894012 0.32196063 -0.55598986
000060 84 b7 fb bf 29 1c b2 3e 04 3f b5 bf 2b 18 0b be
       -1.966538 0.3478711 -1.4159856 -0.13583438
000070 ae b4 f9 bc 04 c9 27 c0 92 03 d1 bd 02 e3 0a bf
       -0.030481663 -2.621644 -0.10205759 -0.54252636
000080 0b 80 8e be fa 08 bc 3e 7d cd 8e 3d 3e d7 1d 3f
       -0.27832064 0.367256 0.069727875 0.6165656
000090 b5 c0 90 be 61 13 43 bf 31 66 2b be bf 8f 7c be
       -0.28272024 -0.76201445 -0.16738202 -0.2466421
0000a0 84 92 b1 3d f3 bd a5 3e de 19 63 3e c7 3f 01 3f
       0.08670524 0.32371482 0.22177836 0.5048794
0000b0 0a 57 d6 3e 85 4a 8d be e5 5f 1a 3f 7d 40 b2 bc
       0.4186328 -0.27595916 0.60302573 -0.021759266
0000c0 f8 ca 30 be d1 1b 23 3f 3e 1f ef 3e 7b a6 a8 be
       -0.17264926 0.6371432 0.46703523 -0.32939515
0000d0 49 2e e3 be 42 49 ab 3e 26 3d 31 bf 5c 09 31 3e
       -0.4437125 0.3345433 -0.6923393 0.17288727
0000e0 3d 96 2f bf 68 de ce be 4e d4 ef bc 93 a7 7a be
       -0.6858862 -0.40404058 -0.02927604 -0.24477987
0000f0 d4 31 e6 be c7 81 58 3e 5b 23 dc 3d 56 0c 16 3e
       -0.4495989 0.21143256 0.10748931 0.14653143
000100 35 17 71 3f 85 7c 5c 3e 02 fb 6e 3f b6 e6 83 3d
       0.94176036 0.21531875 0.9335176 0.06440489
000110 cc 40 26 bf f6 fe b9 bd ad 7a 03 3f ba 90 a2 3e
       -0.6494262 -0.09081833 0.51359063 0.31751043
000120 36 8a 17 bf cc 3b 34 3f f7 ef ce 3f a9 de 9f be
       -0.5919527 0.7040374 1.6166981 -0.31224564
000130 bf 88 c1 3f cd 6a 0f be 2f 5c e7 3d dd 0e 81 40
       1.5119857 -0.14005585 0.112968795 4.0330644
000140 cc 44 0e 3c ba a2 01 3e d3 26 0f 3f ed d0 44 bf
       0.008683395 0.12659732 0.55918616 -0.76881295
000150 0e 2f e1 bf c0 ce e8 3c 0b 84 da bf f4 ed c5 3d
       -1.7592485 0.028418899 -1.7071546 0.096645266
000160 e5 4c 05 bf 33 a3 62 c0 9e 34 b6 bd c4 2b 49 3e
       -0.52070457 -3.541211 -0.08896755 0.19645602
000170 51 23 24 3e 55 73 11 be b9 dd 46 be c1 7d ba be
       0.16029097 -0.14204152 -0.19420518 -0.36424068
000180 5e ce 5a 3e c2 56 5a 3f fd 6e eb 3e 4f 4e 82 3d
       0.21367785 0.8528863 0.45983115 0.063625924
000190 77 7e 15 3f 2b 11 e0 3e 5b de 27 bf 2e 2e 22 40
       0.58396095 0.43763098 -0.6557366 2.5340686
0001a0 92 10 68 3f 0d d8 8c 3c cb cb 24 3f 44 d6 35 3e
       0.90650284 0.017192865 0.64373463 0.17757517
0001b0 be ea 3d 3f 70 10 f6 3f 7b 60 10 3e e6 c6 d6 3e
       0.74186313 1.9223766 0.14099304 0.41948622
0001c0 26 97 07 bf d2 fd 6a 3f 1e f6 a9 3f 3a a0 51 bd
       -0.5296501 0.9179355 1.3278234 -0.051178195
0001d0 7e 83 9d 3f 22 44 75 3e 06 7e 11 3e 18 d9 72 40
       1.2305753 0.23951772 0.1420823 3.7945004
0001e0 0b 8e af 3e 8e 8e 75 be 22 82 39 3d e4 1f 83 3c
       0.34288058 -0.23980162 0.04529012 0.016006418
0001f0 9c b8 b2 bf 55 84 92 be 1d f5 8b bf 37 8f 29 3e
       -1.3962588 -0.28616586 -1.0934178 0.16558538
000200 36 1f bc 3e a6 f2 25 bf 0a 57 2f 3d cb b6 be 3d
       0.36742562 -0.6482338 0.042807616 0.09312209
000210 be 61 b8 be fd 80 fe 3e 93 c2 0a 40 db 2f d4 be
       -0.3601207 0.49707785 2.1681259 -0.4144276
000220 8d a8 f0 3f 64 f7 2e 3d 1d 4b 3c 3d 8a 5a 07 40
       1.8801438 0.0427164 0.04597007 2.114901
000230 40 d7 4d 3e bd 8e 1c bd 93 62 86 be 8b 27 40 3f
       0.20101643 -0.038222063 -0.2624708 0.7506034
000240 37 54 bd 3f 5e 02 60 be 35 4b 9d 3f 54 10 98 3e
       1.4791325 -0.21875903 1.2288576 0.29699957
000250 2c 78 c1 3e ab 02 76 40 ee fc 82 3f 59 c9 e1 bc
       0.37786996 3.8439128 1.0233438 -0.02756183
000260 a3 8a 71 bf d7 f2 8a 3e 9b f6 e6 3d 51 e0 8b bd
       -0.9435217 0.27138397 0.11277505 -0.06829894
000270 2d 0b 19 be 29 02 1a bd 2c 15 91 3f 33 b3 30 3e
       -0.1494567 -0.037599716 1.1334586 0.17255859
000280 2b 30 ae 3f 82 c4 b4 3e df 3f 91 bf 71 8d 96 3e
       1.360845 0.35306174 -1.1347617 0.29404786
000290 5f f1 96 3c a3 e6 1a 3e f1 7d 69 3c 3e cf 99 3d
       0.018425642 0.15127043 0.014251218 0.075102314
0002a0 f9 1a af 3f 24 fd 2b 3e ea f9 d3 be c9 ae 25 be
       1.3680106 0.16795784 -0.41401607 -0.16179956
0002b0 6f a2 a9 3e 98 42 a0 be 10 b9 e7 bf 48 d9 0d be
       0.3313174 -0.31300807 -1.8103352 -0.13852417
0002c0 24 a8 c0 bf d8 6c ed 3c d2 77 ca be 05 d2 97 c0
       -1.5051312 0.028982565 -0.3954454 -4.744387
0002d0 10 af 86 be 70 88 69 3e 6b f7 91 bd f4 42 ae be
       -0.26305437 0.22805953 -0.07127269 -0.34035456
0002e0 f9 5e cf 3d bb ab d5 bd 2b 75 87 3e 06 0b 28 3e
       0.101255365 -0.104331456 0.2645658 0.16410455
0002f0 54 3f 70 be ba 64 86 be a0 37 80 3e 97 82 92 3e
       -0.23461658 -0.26248723 0.25042439 0.28615257
000300 e9 c9 d3 be aa a3 c4 3e 1e b3 53 40 c8 42 35 3e
       -0.41364983 0.38406116 3.3078074 0.17701256
000310 76 7b 31 40 45 5f 5e be 55 a0 96 3e e3 1a 0b 40
       2.7731605 -0.2171603 0.294192 2.173516
000320 7e b9 19 3f ea 05 7a be b7 fa a8 bd 72 c0 87 be
       0.60048664 -0.24416319 -0.08250945 -0.26514012
000330 5f 15 fa be 62 77 f4 be ea be ab be ff eb 21 3f
       -0.4884443 -0.47747332 -0.33544093 0.63250726
000340 90 f4 10 3f 1d 2c 84 be 55 ba 72 3d 8c 02 7e 3d
       0.5662317 -0.25814906 0.05925973 0.062014148
000350 c9 58 c2 3e 66 3c 3b be 49 a4 a5 bf de f0 10 be
       0.37958363 -0.18284759 -1.2940761 -0.14154384
000360 5b 25 b6 bf 87 87 d7 3e ec 94 84 be 72 7d 8b bf
       -1.423015 0.42095587 -0.25894868 -1.0897658
000370 f8 4d c5 3e d4 71 d7 bd fc 44 d0 bd 34 8f 35 3e
       0.38536048 -0.10519758 -0.10169408 0.17730409
000380 9a 6d 33 bf 5c c9 bd 3d 31 a1 d1 be 80 46 80 3b
       -0.70089114 0.09266922 -0.40943292 0.0039146543
000390 a2 42 db 3e 96 f3 c7 be 91 89 07 bf 27 f2 0b 3d
       0.42824274 -0.3905303 -0.52944285 0.03416648
0003a0 9d 8a c4 3e b7 ea 5a bd f0 d6 53 3f 36 a2 a9 3e
       0.38387004 -0.053446498 0.82749844 0.3313157
0003b0 67 53 76 3f 9e 89 2e be 14 09 91 be 3f fa 0a 3f
       0.9622101 -0.17044684 -0.2832724 0.54288095
0003c0 13 c4 72 be 5b ca 09 3e ac 22 bb 3e 7c d6 7d bd
       -0.23707609 0.13456099 0.3654989 -0.061972126
0003d0 e1 b3 4d 3f da 06 23 3f d5 21 3a 3f d6 35 ed be
       0.803526 0.6368233 0.72707874 -0.46330136
0003e0 9c ee 47 3d 72 f4 9a 3d 4f 78 c9 be e0 5b eb 3e
       0.04881154 0.075661555 -0.393496 0.45968533
0003f0 ad 73 c0 3e f6 1b 0a 3e 05 a4 e2 3e cf 1c 95 be
       0.37588254 0.13487229 0.44265762 -0.29123542

decoder.2.bias f4 [30]
000000 6f 75 bb be f2 6a 69 be 39 63 13 bd d9 f0 11 3d
       -0.36613032 -0.22794703 -0.035983298 0.03563008
000010 7d cc 61 3e af fb 69 be 04 82 b9 bc a4 98 4f 3e
       0.22050662 -0.22849916 -0.022645004 0.20273072
000020 ce 0a 01 3e d8 11 d5 bd 9f 63 32 bc 2f 2f 7a 3e
       0.12601778 -0.10403794 -0.010888009 0.24432062
000030 18 5f 63 bd 61 e0 fb 3e 5b 96 65 bd 8b 96 e7 3e
       -0.05551061 0.49194625 -0.056051593 0.45232043
000040 36 07 da 3e 9c d2 3d be a3 a7 ec 3e c5 f7 b0 bd
       0.42583627 -0.18537372 0.46221647 -0.08641008
000050 d7 cf 3b 3c ad 49 8e 3e 53 43 58 be 96 06 e7 bd
       0.011463127 0.27790585 -0.21119432 -0.11280553
000060 96 cb d5 bd d5 a3 ec 3e 6b 22 aa 3e 32 9f 06 3e
       -0.104392216 0.46218744 0.33229384 0.13146666
000070 55 8b 39 be fa c8 d7 3e
       -0.18119557 0.4214552
